{
	"format": "layers-model",
	"generatedBy": "keras v2.2.4-tf",
	"convertedBy": "TensorFlow.js Converter v1.6.0",
	"modelTopology": {
		"keras_version": "2.2.4-tf",
		"backend": "tensorflow",
		"model_config": {
			"class_name": "Model",
			"config": {
				"name": "model",
				"layers": [
					{
						"class_name": "InputLayer",
						"config": {
							"batch_input_shape": [
								null,
								3,
								224,
								224
							],
							"dtype": "float32",
							"sparse": false,
							"ragged": false,
							"name": "input_0"
						},
						"name": "input_0",
						"inbound_nodes": []
					},
					{
						"class_name": "ZeroPadding2D",
						"config": {
							"name": "321_pad",
							"trainable": true,
							"dtype": "float32",
							"padding": [
								[
									3,
									3
								],
								[
									3,
									3
								]
							],
							"data_format": "channels_first"
						},
						"name": "321_pad",
						"inbound_nodes": [
							[
								[
									"input_0",
									0,
									0,
									{}
								]
							]
						]
					},
					{
						"class_name": "Conv2D",
						"config": {
							"name": "321",
							"trainable": true,
							"dtype": "float32",
							"filters": 64,
							"kernel_size": [
								7,
								7
							],
							"strides": [
								2,
								2
							],
							"padding": "valid",
							"data_format": "channels_first",
							"dilation_rate": [
								1,
								1
							],
							"activation": "linear",
							"use_bias": false,
							"kernel_initializer": {
								"class_name": "Zeros",
								"config": {}
							},
							"bias_initializer": {
								"class_name": "Zeros",
								"config": {}
							},
							"kernel_regularizer": null,
							"bias_regularizer": null,
							"activity_regularizer": null,
							"kernel_constraint": null,
							"bias_constraint": null
						},
						"name": "321",
						"inbound_nodes": [
							[
								[
									"321_pad",
									0,
									0,
									{}
								]
							]
						]
					},
					{
						"class_name": "BatchNormalization",
						"config": {
							"name": "322",
							"trainable": true,
							"dtype": "float32",
							"axis": [
								1
							],
							"momentum": 0.8999999761581421,
							"epsilon": 0.000009999999747378752,
							"center": true,
							"scale": true,
							"beta_initializer": {
								"class_name": "Zeros",
								"config": {}
							},
							"gamma_initializer": {
								"class_name": "Ones",
								"config": {}
							},
							"moving_mean_initializer": {
								"class_name": "Zeros",
								"config": {}
							},
							"moving_variance_initializer": {
								"class_name": "Ones",
								"config": {}
							},
							"beta_regularizer": null,
							"gamma_regularizer": null,
							"beta_constraint": null,
							"gamma_constraint": null
						},
						"name": "322",
						"inbound_nodes": [
							[
								[
									"321",
									0,
									0,
									{}
								]
							]
						]
					},
					{
						"class_name": "Activation",
						"config": {
							"name": "323",
							"trainable": true,
							"dtype": "float32",
							"activation": "relu"
						},
						"name": "323",
						"inbound_nodes": [
							[
								[
									"322",
									0,
									0,
									{}
								]
							]
						]
					},
					{
						"class_name": "ZeroPadding2D",
						"config": {
							"name": "324_pad",
							"trainable": true,
							"dtype": "float32",
							"padding": [
								[
									1,
									1
								],
								[
									1,
									1
								]
							],
							"data_format": "channels_first"
						},
						"name": "324_pad",
						"inbound_nodes": [
							[
								[
									"323",
									0,
									0,
									{}
								]
							]
						]
					},
					{
						"class_name": "MaxPooling2D",
						"config": {
							"name": "324",
							"trainable": true,
							"dtype": "float32",
							"pool_size": [
								3,
								3
							],
							"padding": "valid",
							"strides": [
								2,
								2
							],
							"data_format": "channels_first"
						},
						"name": "324",
						"inbound_nodes": [
							[
								[
									"324_pad",
									0,
									0,
									{}
								]
							]
						]
					},
					{
						"class_name": "Conv2D",
						"config": {
							"name": "325",
							"trainable": true,
							"dtype": "float32",
							"filters": 64,
							"kernel_size": [
								1,
								1
							],
							"strides": [
								1,
								1
							],
							"padding": "valid",
							"data_format": "channels_first",
							"dilation_rate": [
								1,
								1
							],
							"activation": "linear",
							"use_bias": false,
							"kernel_initializer": {
								"class_name": "Zeros",
								"config": {}
							},
							"bias_initializer": {
								"class_name": "Zeros",
								"config": {}
							},
							"kernel_regularizer": null,
							"bias_regularizer": null,
							"activity_regularizer": null,
							"kernel_constraint": null,
							"bias_constraint": null
						},
						"name": "325",
						"inbound_nodes": [
							[
								[
									"324",
									0,
									0,
									{}
								]
							]
						]
					},
					{
						"class_name": "BatchNormalization",
						"config": {
							"name": "326",
							"trainable": true,
							"dtype": "float32",
							"axis": [
								1
							],
							"momentum": 0.8999999761581421,
							"epsilon": 0.000009999999747378752,
							"center": true,
							"scale": true,
							"beta_initializer": {
								"class_name": "Zeros",
								"config": {}
							},
							"gamma_initializer": {
								"class_name": "Ones",
								"config": {}
							},
							"moving_mean_initializer": {
								"class_name": "Zeros",
								"config": {}
							},
							"moving_variance_initializer": {
								"class_name": "Ones",
								"config": {}
							},
							"beta_regularizer": null,
							"gamma_regularizer": null,
							"beta_constraint": null,
							"gamma_constraint": null
						},
						"name": "326",
						"inbound_nodes": [
							[
								[
									"325",
									0,
									0,
									{}
								]
							]
						]
					},
					{
						"class_name": "Activation",
						"config": {
							"name": "327",
							"trainable": true,
							"dtype": "float32",
							"activation": "relu"
						},
						"name": "327",
						"inbound_nodes": [
							[
								[
									"326",
									0,
									0,
									{}
								]
							]
						]
					},
					{
						"class_name": "ZeroPadding2D",
						"config": {
							"name": "328_pad",
							"trainable": true,
							"dtype": "float32",
							"padding": [
								[
									1,
									1
								],
								[
									1,
									1
								]
							],
							"data_format": "channels_first"
						},
						"name": "328_pad",
						"inbound_nodes": [
							[
								[
									"327",
									0,
									0,
									{}
								]
							]
						]
					},
					{
						"class_name": "Conv2D",
						"config": {
							"name": "328",
							"trainable": true,
							"dtype": "float32",
							"filters": 64,
							"kernel_size": [
								3,
								3
							],
							"strides": [
								1,
								1
							],
							"padding": "valid",
							"data_format": "channels_first",
							"dilation_rate": [
								1,
								1
							],
							"activation": "linear",
							"use_bias": false,
							"kernel_initializer": {
								"class_name": "Zeros",
								"config": {}
							},
							"bias_initializer": {
								"class_name": "Zeros",
								"config": {}
							},
							"kernel_regularizer": null,
							"bias_regularizer": null,
							"activity_regularizer": null,
							"kernel_constraint": null,
							"bias_constraint": null
						},
						"name": "328",
						"inbound_nodes": [
							[
								[
									"328_pad",
									0,
									0,
									{}
								]
							]
						]
					},
					{
						"class_name": "BatchNormalization",
						"config": {
							"name": "329",
							"trainable": true,
							"dtype": "float32",
							"axis": [
								1
							],
							"momentum": 0.8999999761581421,
							"epsilon": 0.000009999999747378752,
							"center": true,
							"scale": true,
							"beta_initializer": {
								"class_name": "Zeros",
								"config": {}
							},
							"gamma_initializer": {
								"class_name": "Ones",
								"config": {}
							},
							"moving_mean_initializer": {
								"class_name": "Zeros",
								"config": {}
							},
							"moving_variance_initializer": {
								"class_name": "Ones",
								"config": {}
							},
							"beta_regularizer": null,
							"gamma_regularizer": null,
							"beta_constraint": null,
							"gamma_constraint": null
						},
						"name": "329",
						"inbound_nodes": [
							[
								[
									"328",
									0,
									0,
									{}
								]
							]
						]
					},
					{
						"class_name": "Activation",
						"config": {
							"name": "330",
							"trainable": true,
							"dtype": "float32",
							"activation": "relu"
						},
						"name": "330",
						"inbound_nodes": [
							[
								[
									"329",
									0,
									0,
									{}
								]
							]
						]
					},
					{
						"class_name": "Conv2D",
						"config": {
							"name": "331",
							"trainable": true,
							"dtype": "float32",
							"filters": 256,
							"kernel_size": [
								1,
								1
							],
							"strides": [
								1,
								1
							],
							"padding": "valid",
							"data_format": "channels_first",
							"dilation_rate": [
								1,
								1
							],
							"activation": "linear",
							"use_bias": false,
							"kernel_initializer": {
								"class_name": "Zeros",
								"config": {}
							},
							"bias_initializer": {
								"class_name": "Zeros",
								"config": {}
							},
							"kernel_regularizer": null,
							"bias_regularizer": null,
							"activity_regularizer": null,
							"kernel_constraint": null,
							"bias_constraint": null
						},
						"name": "331",
						"inbound_nodes": [
							[
								[
									"330",
									0,
									0,
									{}
								]
							]
						]
					},
					{
						"class_name": "Conv2D",
						"config": {
							"name": "333",
							"trainable": true,
							"dtype": "float32",
							"filters": 256,
							"kernel_size": [
								1,
								1
							],
							"strides": [
								1,
								1
							],
							"padding": "valid",
							"data_format": "channels_first",
							"dilation_rate": [
								1,
								1
							],
							"activation": "linear",
							"use_bias": false,
							"kernel_initializer": {
								"class_name": "Zeros",
								"config": {}
							},
							"bias_initializer": {
								"class_name": "Zeros",
								"config": {}
							},
							"kernel_regularizer": null,
							"bias_regularizer": null,
							"activity_regularizer": null,
							"kernel_constraint": null,
							"bias_constraint": null
						},
						"name": "333",
						"inbound_nodes": [
							[
								[
									"324",
									0,
									0,
									{}
								]
							]
						]
					},
					{
						"class_name": "BatchNormalization",
						"config": {
							"name": "332",
							"trainable": true,
							"dtype": "float32",
							"axis": [
								1
							],
							"momentum": 0.8999999761581421,
							"epsilon": 0.000009999999747378752,
							"center": true,
							"scale": true,
							"beta_initializer": {
								"class_name": "Zeros",
								"config": {}
							},
							"gamma_initializer": {
								"class_name": "Ones",
								"config": {}
							},
							"moving_mean_initializer": {
								"class_name": "Zeros",
								"config": {}
							},
							"moving_variance_initializer": {
								"class_name": "Ones",
								"config": {}
							},
							"beta_regularizer": null,
							"gamma_regularizer": null,
							"beta_constraint": null,
							"gamma_constraint": null
						},
						"name": "332",
						"inbound_nodes": [
							[
								[
									"331",
									0,
									0,
									{}
								]
							]
						]
					},
					{
						"class_name": "BatchNormalization",
						"config": {
							"name": "334",
							"trainable": true,
							"dtype": "float32",
							"axis": [
								1
							],
							"momentum": 0.8999999761581421,
							"epsilon": 0.000009999999747378752,
							"center": true,
							"scale": true,
							"beta_initializer": {
								"class_name": "Zeros",
								"config": {}
							},
							"gamma_initializer": {
								"class_name": "Ones",
								"config": {}
							},
							"moving_mean_initializer": {
								"class_name": "Zeros",
								"config": {}
							},
							"moving_variance_initializer": {
								"class_name": "Ones",
								"config": {}
							},
							"beta_regularizer": null,
							"gamma_regularizer": null,
							"beta_constraint": null,
							"gamma_constraint": null
						},
						"name": "334",
						"inbound_nodes": [
							[
								[
									"333",
									0,
									0,
									{}
								]
							]
						]
					},
					{
						"class_name": "Add",
						"config": {
							"name": "335",
							"trainable": true,
							"dtype": "float32"
						},
						"name": "335",
						"inbound_nodes": [
							[
								[
									"332",
									0,
									0,
									{}
								],
								[
									"334",
									0,
									0,
									{}
								]
							]
						]
					},
					{
						"class_name": "Activation",
						"config": {
							"name": "336",
							"trainable": true,
							"dtype": "float32",
							"activation": "relu"
						},
						"name": "336",
						"inbound_nodes": [
							[
								[
									"335",
									0,
									0,
									{}
								]
							]
						]
					},
					{
						"class_name": "Conv2D",
						"config": {
							"name": "337",
							"trainable": true,
							"dtype": "float32",
							"filters": 64,
							"kernel_size": [
								1,
								1
							],
							"strides": [
								1,
								1
							],
							"padding": "valid",
							"data_format": "channels_first",
							"dilation_rate": [
								1,
								1
							],
							"activation": "linear",
							"use_bias": false,
							"kernel_initializer": {
								"class_name": "Zeros",
								"config": {}
							},
							"bias_initializer": {
								"class_name": "Zeros",
								"config": {}
							},
							"kernel_regularizer": null,
							"bias_regularizer": null,
							"activity_regularizer": null,
							"kernel_constraint": null,
							"bias_constraint": null
						},
						"name": "337",
						"inbound_nodes": [
							[
								[
									"336",
									0,
									0,
									{}
								]
							]
						]
					},
					{
						"class_name": "BatchNormalization",
						"config": {
							"name": "338",
							"trainable": true,
							"dtype": "float32",
							"axis": [
								1
							],
							"momentum": 0.8999999761581421,
							"epsilon": 0.000009999999747378752,
							"center": true,
							"scale": true,
							"beta_initializer": {
								"class_name": "Zeros",
								"config": {}
							},
							"gamma_initializer": {
								"class_name": "Ones",
								"config": {}
							},
							"moving_mean_initializer": {
								"class_name": "Zeros",
								"config": {}
							},
							"moving_variance_initializer": {
								"class_name": "Ones",
								"config": {}
							},
							"beta_regularizer": null,
							"gamma_regularizer": null,
							"beta_constraint": null,
							"gamma_constraint": null
						},
						"name": "338",
						"inbound_nodes": [
							[
								[
									"337",
									0,
									0,
									{}
								]
							]
						]
					},
					{
						"class_name": "Activation",
						"config": {
							"name": "339",
							"trainable": true,
							"dtype": "float32",
							"activation": "relu"
						},
						"name": "339",
						"inbound_nodes": [
							[
								[
									"338",
									0,
									0,
									{}
								]
							]
						]
					},
					{
						"class_name": "ZeroPadding2D",
						"config": {
							"name": "340_pad",
							"trainable": true,
							"dtype": "float32",
							"padding": [
								[
									1,
									1
								],
								[
									1,
									1
								]
							],
							"data_format": "channels_first"
						},
						"name": "340_pad",
						"inbound_nodes": [
							[
								[
									"339",
									0,
									0,
									{}
								]
							]
						]
					},
					{
						"class_name": "Conv2D",
						"config": {
							"name": "340",
							"trainable": true,
							"dtype": "float32",
							"filters": 64,
							"kernel_size": [
								3,
								3
							],
							"strides": [
								1,
								1
							],
							"padding": "valid",
							"data_format": "channels_first",
							"dilation_rate": [
								1,
								1
							],
							"activation": "linear",
							"use_bias": false,
							"kernel_initializer": {
								"class_name": "Zeros",
								"config": {}
							},
							"bias_initializer": {
								"class_name": "Zeros",
								"config": {}
							},
							"kernel_regularizer": null,
							"bias_regularizer": null,
							"activity_regularizer": null,
							"kernel_constraint": null,
							"bias_constraint": null
						},
						"name": "340",
						"inbound_nodes": [
							[
								[
									"340_pad",
									0,
									0,
									{}
								]
							]
						]
					},
					{
						"class_name": "BatchNormalization",
						"config": {
							"name": "341",
							"trainable": true,
							"dtype": "float32",
							"axis": [
								1
							],
							"momentum": 0.8999999761581421,
							"epsilon": 0.000009999999747378752,
							"center": true,
							"scale": true,
							"beta_initializer": {
								"class_name": "Zeros",
								"config": {}
							},
							"gamma_initializer": {
								"class_name": "Ones",
								"config": {}
							},
							"moving_mean_initializer": {
								"class_name": "Zeros",
								"config": {}
							},
							"moving_variance_initializer": {
								"class_name": "Ones",
								"config": {}
							},
							"beta_regularizer": null,
							"gamma_regularizer": null,
							"beta_constraint": null,
							"gamma_constraint": null
						},
						"name": "341",
						"inbound_nodes": [
							[
								[
									"340",
									0,
									0,
									{}
								]
							]
						]
					},
					{
						"class_name": "Activation",
						"config": {
							"name": "342",
							"trainable": true,
							"dtype": "float32",
							"activation": "relu"
						},
						"name": "342",
						"inbound_nodes": [
							[
								[
									"341",
									0,
									0,
									{}
								]
							]
						]
					},
					{
						"class_name": "Conv2D",
						"config": {
							"name": "343",
							"trainable": true,
							"dtype": "float32",
							"filters": 256,
							"kernel_size": [
								1,
								1
							],
							"strides": [
								1,
								1
							],
							"padding": "valid",
							"data_format": "channels_first",
							"dilation_rate": [
								1,
								1
							],
							"activation": "linear",
							"use_bias": false,
							"kernel_initializer": {
								"class_name": "Zeros",
								"config": {}
							},
							"bias_initializer": {
								"class_name": "Zeros",
								"config": {}
							},
							"kernel_regularizer": null,
							"bias_regularizer": null,
							"activity_regularizer": null,
							"kernel_constraint": null,
							"bias_constraint": null
						},
						"name": "343",
						"inbound_nodes": [
							[
								[
									"342",
									0,
									0,
									{}
								]
							]
						]
					},
					{
						"class_name": "BatchNormalization",
						"config": {
							"name": "344",
							"trainable": true,
							"dtype": "float32",
							"axis": [
								1
							],
							"momentum": 0.8999999761581421,
							"epsilon": 0.000009999999747378752,
							"center": true,
							"scale": true,
							"beta_initializer": {
								"class_name": "Zeros",
								"config": {}
							},
							"gamma_initializer": {
								"class_name": "Ones",
								"config": {}
							},
							"moving_mean_initializer": {
								"class_name": "Zeros",
								"config": {}
							},
							"moving_variance_initializer": {
								"class_name": "Ones",
								"config": {}
							},
							"beta_regularizer": null,
							"gamma_regularizer": null,
							"beta_constraint": null,
							"gamma_constraint": null
						},
						"name": "344",
						"inbound_nodes": [
							[
								[
									"343",
									0,
									0,
									{}
								]
							]
						]
					},
					{
						"class_name": "Add",
						"config": {
							"name": "345",
							"trainable": true,
							"dtype": "float32"
						},
						"name": "345",
						"inbound_nodes": [
							[
								[
									"344",
									0,
									0,
									{}
								],
								[
									"336",
									0,
									0,
									{}
								]
							]
						]
					},
					{
						"class_name": "Activation",
						"config": {
							"name": "346",
							"trainable": true,
							"dtype": "float32",
							"activation": "relu"
						},
						"name": "346",
						"inbound_nodes": [
							[
								[
									"345",
									0,
									0,
									{}
								]
							]
						]
					},
					{
						"class_name": "Conv2D",
						"config": {
							"name": "347",
							"trainable": true,
							"dtype": "float32",
							"filters": 64,
							"kernel_size": [
								1,
								1
							],
							"strides": [
								1,
								1
							],
							"padding": "valid",
							"data_format": "channels_first",
							"dilation_rate": [
								1,
								1
							],
							"activation": "linear",
							"use_bias": false,
							"kernel_initializer": {
								"class_name": "Zeros",
								"config": {}
							},
							"bias_initializer": {
								"class_name": "Zeros",
								"config": {}
							},
							"kernel_regularizer": null,
							"bias_regularizer": null,
							"activity_regularizer": null,
							"kernel_constraint": null,
							"bias_constraint": null
						},
						"name": "347",
						"inbound_nodes": [
							[
								[
									"346",
									0,
									0,
									{}
								]
							]
						]
					},
					{
						"class_name": "BatchNormalization",
						"config": {
							"name": "348",
							"trainable": true,
							"dtype": "float32",
							"axis": [
								1
							],
							"momentum": 0.8999999761581421,
							"epsilon": 0.000009999999747378752,
							"center": true,
							"scale": true,
							"beta_initializer": {
								"class_name": "Zeros",
								"config": {}
							},
							"gamma_initializer": {
								"class_name": "Ones",
								"config": {}
							},
							"moving_mean_initializer": {
								"class_name": "Zeros",
								"config": {}
							},
							"moving_variance_initializer": {
								"class_name": "Ones",
								"config": {}
							},
							"beta_regularizer": null,
							"gamma_regularizer": null,
							"beta_constraint": null,
							"gamma_constraint": null
						},
						"name": "348",
						"inbound_nodes": [
							[
								[
									"347",
									0,
									0,
									{}
								]
							]
						]
					},
					{
						"class_name": "Activation",
						"config": {
							"name": "349",
							"trainable": true,
							"dtype": "float32",
							"activation": "relu"
						},
						"name": "349",
						"inbound_nodes": [
							[
								[
									"348",
									0,
									0,
									{}
								]
							]
						]
					},
					{
						"class_name": "ZeroPadding2D",
						"config": {
							"name": "350_pad",
							"trainable": true,
							"dtype": "float32",
							"padding": [
								[
									1,
									1
								],
								[
									1,
									1
								]
							],
							"data_format": "channels_first"
						},
						"name": "350_pad",
						"inbound_nodes": [
							[
								[
									"349",
									0,
									0,
									{}
								]
							]
						]
					},
					{
						"class_name": "Conv2D",
						"config": {
							"name": "350",
							"trainable": true,
							"dtype": "float32",
							"filters": 64,
							"kernel_size": [
								3,
								3
							],
							"strides": [
								1,
								1
							],
							"padding": "valid",
							"data_format": "channels_first",
							"dilation_rate": [
								1,
								1
							],
							"activation": "linear",
							"use_bias": false,
							"kernel_initializer": {
								"class_name": "Zeros",
								"config": {}
							},
							"bias_initializer": {
								"class_name": "Zeros",
								"config": {}
							},
							"kernel_regularizer": null,
							"bias_regularizer": null,
							"activity_regularizer": null,
							"kernel_constraint": null,
							"bias_constraint": null
						},
						"name": "350",
						"inbound_nodes": [
							[
								[
									"350_pad",
									0,
									0,
									{}
								]
							]
						]
					},
					{
						"class_name": "BatchNormalization",
						"config": {
							"name": "351",
							"trainable": true,
							"dtype": "float32",
							"axis": [
								1
							],
							"momentum": 0.8999999761581421,
							"epsilon": 0.000009999999747378752,
							"center": true,
							"scale": true,
							"beta_initializer": {
								"class_name": "Zeros",
								"config": {}
							},
							"gamma_initializer": {
								"class_name": "Ones",
								"config": {}
							},
							"moving_mean_initializer": {
								"class_name": "Zeros",
								"config": {}
							},
							"moving_variance_initializer": {
								"class_name": "Ones",
								"config": {}
							},
							"beta_regularizer": null,
							"gamma_regularizer": null,
							"beta_constraint": null,
							"gamma_constraint": null
						},
						"name": "351",
						"inbound_nodes": [
							[
								[
									"350",
									0,
									0,
									{}
								]
							]
						]
					},
					{
						"class_name": "Activation",
						"config": {
							"name": "352",
							"trainable": true,
							"dtype": "float32",
							"activation": "relu"
						},
						"name": "352",
						"inbound_nodes": [
							[
								[
									"351",
									0,
									0,
									{}
								]
							]
						]
					},
					{
						"class_name": "Conv2D",
						"config": {
							"name": "353",
							"trainable": true,
							"dtype": "float32",
							"filters": 256,
							"kernel_size": [
								1,
								1
							],
							"strides": [
								1,
								1
							],
							"padding": "valid",
							"data_format": "channels_first",
							"dilation_rate": [
								1,
								1
							],
							"activation": "linear",
							"use_bias": false,
							"kernel_initializer": {
								"class_name": "Zeros",
								"config": {}
							},
							"bias_initializer": {
								"class_name": "Zeros",
								"config": {}
							},
							"kernel_regularizer": null,
							"bias_regularizer": null,
							"activity_regularizer": null,
							"kernel_constraint": null,
							"bias_constraint": null
						},
						"name": "353",
						"inbound_nodes": [
							[
								[
									"352",
									0,
									0,
									{}
								]
							]
						]
					},
					{
						"class_name": "BatchNormalization",
						"config": {
							"name": "354",
							"trainable": true,
							"dtype": "float32",
							"axis": [
								1
							],
							"momentum": 0.8999999761581421,
							"epsilon": 0.000009999999747378752,
							"center": true,
							"scale": true,
							"beta_initializer": {
								"class_name": "Zeros",
								"config": {}
							},
							"gamma_initializer": {
								"class_name": "Ones",
								"config": {}
							},
							"moving_mean_initializer": {
								"class_name": "Zeros",
								"config": {}
							},
							"moving_variance_initializer": {
								"class_name": "Ones",
								"config": {}
							},
							"beta_regularizer": null,
							"gamma_regularizer": null,
							"beta_constraint": null,
							"gamma_constraint": null
						},
						"name": "354",
						"inbound_nodes": [
							[
								[
									"353",
									0,
									0,
									{}
								]
							]
						]
					},
					{
						"class_name": "Add",
						"config": {
							"name": "355",
							"trainable": true,
							"dtype": "float32"
						},
						"name": "355",
						"inbound_nodes": [
							[
								[
									"354",
									0,
									0,
									{}
								],
								[
									"346",
									0,
									0,
									{}
								]
							]
						]
					},
					{
						"class_name": "Activation",
						"config": {
							"name": "356",
							"trainable": true,
							"dtype": "float32",
							"activation": "relu"
						},
						"name": "356",
						"inbound_nodes": [
							[
								[
									"355",
									0,
									0,
									{}
								]
							]
						]
					},
					{
						"class_name": "Conv2D",
						"config": {
							"name": "357",
							"trainable": true,
							"dtype": "float32",
							"filters": 128,
							"kernel_size": [
								1,
								1
							],
							"strides": [
								1,
								1
							],
							"padding": "valid",
							"data_format": "channels_first",
							"dilation_rate": [
								1,
								1
							],
							"activation": "linear",
							"use_bias": false,
							"kernel_initializer": {
								"class_name": "Zeros",
								"config": {}
							},
							"bias_initializer": {
								"class_name": "Zeros",
								"config": {}
							},
							"kernel_regularizer": null,
							"bias_regularizer": null,
							"activity_regularizer": null,
							"kernel_constraint": null,
							"bias_constraint": null
						},
						"name": "357",
						"inbound_nodes": [
							[
								[
									"356",
									0,
									0,
									{}
								]
							]
						]
					},
					{
						"class_name": "BatchNormalization",
						"config": {
							"name": "358",
							"trainable": true,
							"dtype": "float32",
							"axis": [
								1
							],
							"momentum": 0.8999999761581421,
							"epsilon": 0.000009999999747378752,
							"center": true,
							"scale": true,
							"beta_initializer": {
								"class_name": "Zeros",
								"config": {}
							},
							"gamma_initializer": {
								"class_name": "Ones",
								"config": {}
							},
							"moving_mean_initializer": {
								"class_name": "Zeros",
								"config": {}
							},
							"moving_variance_initializer": {
								"class_name": "Ones",
								"config": {}
							},
							"beta_regularizer": null,
							"gamma_regularizer": null,
							"beta_constraint": null,
							"gamma_constraint": null
						},
						"name": "358",
						"inbound_nodes": [
							[
								[
									"357",
									0,
									0,
									{}
								]
							]
						]
					},
					{
						"class_name": "Activation",
						"config": {
							"name": "359",
							"trainable": true,
							"dtype": "float32",
							"activation": "relu"
						},
						"name": "359",
						"inbound_nodes": [
							[
								[
									"358",
									0,
									0,
									{}
								]
							]
						]
					},
					{
						"class_name": "ZeroPadding2D",
						"config": {
							"name": "360_pad",
							"trainable": true,
							"dtype": "float32",
							"padding": [
								[
									1,
									1
								],
								[
									1,
									1
								]
							],
							"data_format": "channels_first"
						},
						"name": "360_pad",
						"inbound_nodes": [
							[
								[
									"359",
									0,
									0,
									{}
								]
							]
						]
					},
					{
						"class_name": "Conv2D",
						"config": {
							"name": "360",
							"trainable": true,
							"dtype": "float32",
							"filters": 128,
							"kernel_size": [
								3,
								3
							],
							"strides": [
								2,
								2
							],
							"padding": "valid",
							"data_format": "channels_first",
							"dilation_rate": [
								1,
								1
							],
							"activation": "linear",
							"use_bias": false,
							"kernel_initializer": {
								"class_name": "Zeros",
								"config": {}
							},
							"bias_initializer": {
								"class_name": "Zeros",
								"config": {}
							},
							"kernel_regularizer": null,
							"bias_regularizer": null,
							"activity_regularizer": null,
							"kernel_constraint": null,
							"bias_constraint": null
						},
						"name": "360",
						"inbound_nodes": [
							[
								[
									"360_pad",
									0,
									0,
									{}
								]
							]
						]
					},
					{
						"class_name": "BatchNormalization",
						"config": {
							"name": "361",
							"trainable": true,
							"dtype": "float32",
							"axis": [
								1
							],
							"momentum": 0.8999999761581421,
							"epsilon": 0.000009999999747378752,
							"center": true,
							"scale": true,
							"beta_initializer": {
								"class_name": "Zeros",
								"config": {}
							},
							"gamma_initializer": {
								"class_name": "Ones",
								"config": {}
							},
							"moving_mean_initializer": {
								"class_name": "Zeros",
								"config": {}
							},
							"moving_variance_initializer": {
								"class_name": "Ones",
								"config": {}
							},
							"beta_regularizer": null,
							"gamma_regularizer": null,
							"beta_constraint": null,
							"gamma_constraint": null
						},
						"name": "361",
						"inbound_nodes": [
							[
								[
									"360",
									0,
									0,
									{}
								]
							]
						]
					},
					{
						"class_name": "Activation",
						"config": {
							"name": "362",
							"trainable": true,
							"dtype": "float32",
							"activation": "relu"
						},
						"name": "362",
						"inbound_nodes": [
							[
								[
									"361",
									0,
									0,
									{}
								]
							]
						]
					},
					{
						"class_name": "Conv2D",
						"config": {
							"name": "363",
							"trainable": true,
							"dtype": "float32",
							"filters": 512,
							"kernel_size": [
								1,
								1
							],
							"strides": [
								1,
								1
							],
							"padding": "valid",
							"data_format": "channels_first",
							"dilation_rate": [
								1,
								1
							],
							"activation": "linear",
							"use_bias": false,
							"kernel_initializer": {
								"class_name": "Zeros",
								"config": {}
							},
							"bias_initializer": {
								"class_name": "Zeros",
								"config": {}
							},
							"kernel_regularizer": null,
							"bias_regularizer": null,
							"activity_regularizer": null,
							"kernel_constraint": null,
							"bias_constraint": null
						},
						"name": "363",
						"inbound_nodes": [
							[
								[
									"362",
									0,
									0,
									{}
								]
							]
						]
					},
					{
						"class_name": "Conv2D",
						"config": {
							"name": "365",
							"trainable": true,
							"dtype": "float32",
							"filters": 512,
							"kernel_size": [
								1,
								1
							],
							"strides": [
								2,
								2
							],
							"padding": "valid",
							"data_format": "channels_first",
							"dilation_rate": [
								1,
								1
							],
							"activation": "linear",
							"use_bias": false,
							"kernel_initializer": {
								"class_name": "Zeros",
								"config": {}
							},
							"bias_initializer": {
								"class_name": "Zeros",
								"config": {}
							},
							"kernel_regularizer": null,
							"bias_regularizer": null,
							"activity_regularizer": null,
							"kernel_constraint": null,
							"bias_constraint": null
						},
						"name": "365",
						"inbound_nodes": [
							[
								[
									"356",
									0,
									0,
									{}
								]
							]
						]
					},
					{
						"class_name": "BatchNormalization",
						"config": {
							"name": "364",
							"trainable": true,
							"dtype": "float32",
							"axis": [
								1
							],
							"momentum": 0.8999999761581421,
							"epsilon": 0.000009999999747378752,
							"center": true,
							"scale": true,
							"beta_initializer": {
								"class_name": "Zeros",
								"config": {}
							},
							"gamma_initializer": {
								"class_name": "Ones",
								"config": {}
							},
							"moving_mean_initializer": {
								"class_name": "Zeros",
								"config": {}
							},
							"moving_variance_initializer": {
								"class_name": "Ones",
								"config": {}
							},
							"beta_regularizer": null,
							"gamma_regularizer": null,
							"beta_constraint": null,
							"gamma_constraint": null
						},
						"name": "364",
						"inbound_nodes": [
							[
								[
									"363",
									0,
									0,
									{}
								]
							]
						]
					},
					{
						"class_name": "BatchNormalization",
						"config": {
							"name": "366",
							"trainable": true,
							"dtype": "float32",
							"axis": [
								1
							],
							"momentum": 0.8999999761581421,
							"epsilon": 0.000009999999747378752,
							"center": true,
							"scale": true,
							"beta_initializer": {
								"class_name": "Zeros",
								"config": {}
							},
							"gamma_initializer": {
								"class_name": "Ones",
								"config": {}
							},
							"moving_mean_initializer": {
								"class_name": "Zeros",
								"config": {}
							},
							"moving_variance_initializer": {
								"class_name": "Ones",
								"config": {}
							},
							"beta_regularizer": null,
							"gamma_regularizer": null,
							"beta_constraint": null,
							"gamma_constraint": null
						},
						"name": "366",
						"inbound_nodes": [
							[
								[
									"365",
									0,
									0,
									{}
								]
							]
						]
					},
					{
						"class_name": "Add",
						"config": {
							"name": "367",
							"trainable": true,
							"dtype": "float32"
						},
						"name": "367",
						"inbound_nodes": [
							[
								[
									"364",
									0,
									0,
									{}
								],
								[
									"366",
									0,
									0,
									{}
								]
							]
						]
					},
					{
						"class_name": "Activation",
						"config": {
							"name": "368",
							"trainable": true,
							"dtype": "float32",
							"activation": "relu"
						},
						"name": "368",
						"inbound_nodes": [
							[
								[
									"367",
									0,
									0,
									{}
								]
							]
						]
					},
					{
						"class_name": "Conv2D",
						"config": {
							"name": "369",
							"trainable": true,
							"dtype": "float32",
							"filters": 128,
							"kernel_size": [
								1,
								1
							],
							"strides": [
								1,
								1
							],
							"padding": "valid",
							"data_format": "channels_first",
							"dilation_rate": [
								1,
								1
							],
							"activation": "linear",
							"use_bias": false,
							"kernel_initializer": {
								"class_name": "Zeros",
								"config": {}
							},
							"bias_initializer": {
								"class_name": "Zeros",
								"config": {}
							},
							"kernel_regularizer": null,
							"bias_regularizer": null,
							"activity_regularizer": null,
							"kernel_constraint": null,
							"bias_constraint": null
						},
						"name": "369",
						"inbound_nodes": [
							[
								[
									"368",
									0,
									0,
									{}
								]
							]
						]
					},
					{
						"class_name": "BatchNormalization",
						"config": {
							"name": "370",
							"trainable": true,
							"dtype": "float32",
							"axis": [
								1
							],
							"momentum": 0.8999999761581421,
							"epsilon": 0.000009999999747378752,
							"center": true,
							"scale": true,
							"beta_initializer": {
								"class_name": "Zeros",
								"config": {}
							},
							"gamma_initializer": {
								"class_name": "Ones",
								"config": {}
							},
							"moving_mean_initializer": {
								"class_name": "Zeros",
								"config": {}
							},
							"moving_variance_initializer": {
								"class_name": "Ones",
								"config": {}
							},
							"beta_regularizer": null,
							"gamma_regularizer": null,
							"beta_constraint": null,
							"gamma_constraint": null
						},
						"name": "370",
						"inbound_nodes": [
							[
								[
									"369",
									0,
									0,
									{}
								]
							]
						]
					},
					{
						"class_name": "Activation",
						"config": {
							"name": "371",
							"trainable": true,
							"dtype": "float32",
							"activation": "relu"
						},
						"name": "371",
						"inbound_nodes": [
							[
								[
									"370",
									0,
									0,
									{}
								]
							]
						]
					},
					{
						"class_name": "ZeroPadding2D",
						"config": {
							"name": "372_pad",
							"trainable": true,
							"dtype": "float32",
							"padding": [
								[
									1,
									1
								],
								[
									1,
									1
								]
							],
							"data_format": "channels_first"
						},
						"name": "372_pad",
						"inbound_nodes": [
							[
								[
									"371",
									0,
									0,
									{}
								]
							]
						]
					},
					{
						"class_name": "Conv2D",
						"config": {
							"name": "372",
							"trainable": true,
							"dtype": "float32",
							"filters": 128,
							"kernel_size": [
								3,
								3
							],
							"strides": [
								1,
								1
							],
							"padding": "valid",
							"data_format": "channels_first",
							"dilation_rate": [
								1,
								1
							],
							"activation": "linear",
							"use_bias": false,
							"kernel_initializer": {
								"class_name": "Zeros",
								"config": {}
							},
							"bias_initializer": {
								"class_name": "Zeros",
								"config": {}
							},
							"kernel_regularizer": null,
							"bias_regularizer": null,
							"activity_regularizer": null,
							"kernel_constraint": null,
							"bias_constraint": null
						},
						"name": "372",
						"inbound_nodes": [
							[
								[
									"372_pad",
									0,
									0,
									{}
								]
							]
						]
					},
					{
						"class_name": "BatchNormalization",
						"config": {
							"name": "373",
							"trainable": true,
							"dtype": "float32",
							"axis": [
								1
							],
							"momentum": 0.8999999761581421,
							"epsilon": 0.000009999999747378752,
							"center": true,
							"scale": true,
							"beta_initializer": {
								"class_name": "Zeros",
								"config": {}
							},
							"gamma_initializer": {
								"class_name": "Ones",
								"config": {}
							},
							"moving_mean_initializer": {
								"class_name": "Zeros",
								"config": {}
							},
							"moving_variance_initializer": {
								"class_name": "Ones",
								"config": {}
							},
							"beta_regularizer": null,
							"gamma_regularizer": null,
							"beta_constraint": null,
							"gamma_constraint": null
						},
						"name": "373",
						"inbound_nodes": [
							[
								[
									"372",
									0,
									0,
									{}
								]
							]
						]
					},
					{
						"class_name": "Activation",
						"config": {
							"name": "374",
							"trainable": true,
							"dtype": "float32",
							"activation": "relu"
						},
						"name": "374",
						"inbound_nodes": [
							[
								[
									"373",
									0,
									0,
									{}
								]
							]
						]
					},
					{
						"class_name": "Conv2D",
						"config": {
							"name": "375",
							"trainable": true,
							"dtype": "float32",
							"filters": 512,
							"kernel_size": [
								1,
								1
							],
							"strides": [
								1,
								1
							],
							"padding": "valid",
							"data_format": "channels_first",
							"dilation_rate": [
								1,
								1
							],
							"activation": "linear",
							"use_bias": false,
							"kernel_initializer": {
								"class_name": "Zeros",
								"config": {}
							},
							"bias_initializer": {
								"class_name": "Zeros",
								"config": {}
							},
							"kernel_regularizer": null,
							"bias_regularizer": null,
							"activity_regularizer": null,
							"kernel_constraint": null,
							"bias_constraint": null
						},
						"name": "375",
						"inbound_nodes": [
							[
								[
									"374",
									0,
									0,
									{}
								]
							]
						]
					},
					{
						"class_name": "BatchNormalization",
						"config": {
							"name": "376",
							"trainable": true,
							"dtype": "float32",
							"axis": [
								1
							],
							"momentum": 0.8999999761581421,
							"epsilon": 0.000009999999747378752,
							"center": true,
							"scale": true,
							"beta_initializer": {
								"class_name": "Zeros",
								"config": {}
							},
							"gamma_initializer": {
								"class_name": "Ones",
								"config": {}
							},
							"moving_mean_initializer": {
								"class_name": "Zeros",
								"config": {}
							},
							"moving_variance_initializer": {
								"class_name": "Ones",
								"config": {}
							},
							"beta_regularizer": null,
							"gamma_regularizer": null,
							"beta_constraint": null,
							"gamma_constraint": null
						},
						"name": "376",
						"inbound_nodes": [
							[
								[
									"375",
									0,
									0,
									{}
								]
							]
						]
					},
					{
						"class_name": "Add",
						"config": {
							"name": "377",
							"trainable": true,
							"dtype": "float32"
						},
						"name": "377",
						"inbound_nodes": [
							[
								[
									"376",
									0,
									0,
									{}
								],
								[
									"368",
									0,
									0,
									{}
								]
							]
						]
					},
					{
						"class_name": "Activation",
						"config": {
							"name": "378",
							"trainable": true,
							"dtype": "float32",
							"activation": "relu"
						},
						"name": "378",
						"inbound_nodes": [
							[
								[
									"377",
									0,
									0,
									{}
								]
							]
						]
					},
					{
						"class_name": "Conv2D",
						"config": {
							"name": "379",
							"trainable": true,
							"dtype": "float32",
							"filters": 128,
							"kernel_size": [
								1,
								1
							],
							"strides": [
								1,
								1
							],
							"padding": "valid",
							"data_format": "channels_first",
							"dilation_rate": [
								1,
								1
							],
							"activation": "linear",
							"use_bias": false,
							"kernel_initializer": {
								"class_name": "Zeros",
								"config": {}
							},
							"bias_initializer": {
								"class_name": "Zeros",
								"config": {}
							},
							"kernel_regularizer": null,
							"bias_regularizer": null,
							"activity_regularizer": null,
							"kernel_constraint": null,
							"bias_constraint": null
						},
						"name": "379",
						"inbound_nodes": [
							[
								[
									"378",
									0,
									0,
									{}
								]
							]
						]
					},
					{
						"class_name": "BatchNormalization",
						"config": {
							"name": "380",
							"trainable": true,
							"dtype": "float32",
							"axis": [
								1
							],
							"momentum": 0.8999999761581421,
							"epsilon": 0.000009999999747378752,
							"center": true,
							"scale": true,
							"beta_initializer": {
								"class_name": "Zeros",
								"config": {}
							},
							"gamma_initializer": {
								"class_name": "Ones",
								"config": {}
							},
							"moving_mean_initializer": {
								"class_name": "Zeros",
								"config": {}
							},
							"moving_variance_initializer": {
								"class_name": "Ones",
								"config": {}
							},
							"beta_regularizer": null,
							"gamma_regularizer": null,
							"beta_constraint": null,
							"gamma_constraint": null
						},
						"name": "380",
						"inbound_nodes": [
							[
								[
									"379",
									0,
									0,
									{}
								]
							]
						]
					},
					{
						"class_name": "Activation",
						"config": {
							"name": "381",
							"trainable": true,
							"dtype": "float32",
							"activation": "relu"
						},
						"name": "381",
						"inbound_nodes": [
							[
								[
									"380",
									0,
									0,
									{}
								]
							]
						]
					},
					{
						"class_name": "ZeroPadding2D",
						"config": {
							"name": "382_pad",
							"trainable": true,
							"dtype": "float32",
							"padding": [
								[
									1,
									1
								],
								[
									1,
									1
								]
							],
							"data_format": "channels_first"
						},
						"name": "382_pad",
						"inbound_nodes": [
							[
								[
									"381",
									0,
									0,
									{}
								]
							]
						]
					},
					{
						"class_name": "Conv2D",
						"config": {
							"name": "382",
							"trainable": true,
							"dtype": "float32",
							"filters": 128,
							"kernel_size": [
								3,
								3
							],
							"strides": [
								1,
								1
							],
							"padding": "valid",
							"data_format": "channels_first",
							"dilation_rate": [
								1,
								1
							],
							"activation": "linear",
							"use_bias": false,
							"kernel_initializer": {
								"class_name": "Zeros",
								"config": {}
							},
							"bias_initializer": {
								"class_name": "Zeros",
								"config": {}
							},
							"kernel_regularizer": null,
							"bias_regularizer": null,
							"activity_regularizer": null,
							"kernel_constraint": null,
							"bias_constraint": null
						},
						"name": "382",
						"inbound_nodes": [
							[
								[
									"382_pad",
									0,
									0,
									{}
								]
							]
						]
					},
					{
						"class_name": "BatchNormalization",
						"config": {
							"name": "383",
							"trainable": true,
							"dtype": "float32",
							"axis": [
								1
							],
							"momentum": 0.8999999761581421,
							"epsilon": 0.000009999999747378752,
							"center": true,
							"scale": true,
							"beta_initializer": {
								"class_name": "Zeros",
								"config": {}
							},
							"gamma_initializer": {
								"class_name": "Ones",
								"config": {}
							},
							"moving_mean_initializer": {
								"class_name": "Zeros",
								"config": {}
							},
							"moving_variance_initializer": {
								"class_name": "Ones",
								"config": {}
							},
							"beta_regularizer": null,
							"gamma_regularizer": null,
							"beta_constraint": null,
							"gamma_constraint": null
						},
						"name": "383",
						"inbound_nodes": [
							[
								[
									"382",
									0,
									0,
									{}
								]
							]
						]
					},
					{
						"class_name": "Activation",
						"config": {
							"name": "384",
							"trainable": true,
							"dtype": "float32",
							"activation": "relu"
						},
						"name": "384",
						"inbound_nodes": [
							[
								[
									"383",
									0,
									0,
									{}
								]
							]
						]
					},
					{
						"class_name": "Conv2D",
						"config": {
							"name": "385",
							"trainable": true,
							"dtype": "float32",
							"filters": 512,
							"kernel_size": [
								1,
								1
							],
							"strides": [
								1,
								1
							],
							"padding": "valid",
							"data_format": "channels_first",
							"dilation_rate": [
								1,
								1
							],
							"activation": "linear",
							"use_bias": false,
							"kernel_initializer": {
								"class_name": "Zeros",
								"config": {}
							},
							"bias_initializer": {
								"class_name": "Zeros",
								"config": {}
							},
							"kernel_regularizer": null,
							"bias_regularizer": null,
							"activity_regularizer": null,
							"kernel_constraint": null,
							"bias_constraint": null
						},
						"name": "385",
						"inbound_nodes": [
							[
								[
									"384",
									0,
									0,
									{}
								]
							]
						]
					},
					{
						"class_name": "BatchNormalization",
						"config": {
							"name": "386",
							"trainable": true,
							"dtype": "float32",
							"axis": [
								1
							],
							"momentum": 0.8999999761581421,
							"epsilon": 0.000009999999747378752,
							"center": true,
							"scale": true,
							"beta_initializer": {
								"class_name": "Zeros",
								"config": {}
							},
							"gamma_initializer": {
								"class_name": "Ones",
								"config": {}
							},
							"moving_mean_initializer": {
								"class_name": "Zeros",
								"config": {}
							},
							"moving_variance_initializer": {
								"class_name": "Ones",
								"config": {}
							},
							"beta_regularizer": null,
							"gamma_regularizer": null,
							"beta_constraint": null,
							"gamma_constraint": null
						},
						"name": "386",
						"inbound_nodes": [
							[
								[
									"385",
									0,
									0,
									{}
								]
							]
						]
					},
					{
						"class_name": "Add",
						"config": {
							"name": "387",
							"trainable": true,
							"dtype": "float32"
						},
						"name": "387",
						"inbound_nodes": [
							[
								[
									"386",
									0,
									0,
									{}
								],
								[
									"378",
									0,
									0,
									{}
								]
							]
						]
					},
					{
						"class_name": "Activation",
						"config": {
							"name": "388",
							"trainable": true,
							"dtype": "float32",
							"activation": "relu"
						},
						"name": "388",
						"inbound_nodes": [
							[
								[
									"387",
									0,
									0,
									{}
								]
							]
						]
					},
					{
						"class_name": "Conv2D",
						"config": {
							"name": "389",
							"trainable": true,
							"dtype": "float32",
							"filters": 128,
							"kernel_size": [
								1,
								1
							],
							"strides": [
								1,
								1
							],
							"padding": "valid",
							"data_format": "channels_first",
							"dilation_rate": [
								1,
								1
							],
							"activation": "linear",
							"use_bias": false,
							"kernel_initializer": {
								"class_name": "Zeros",
								"config": {}
							},
							"bias_initializer": {
								"class_name": "Zeros",
								"config": {}
							},
							"kernel_regularizer": null,
							"bias_regularizer": null,
							"activity_regularizer": null,
							"kernel_constraint": null,
							"bias_constraint": null
						},
						"name": "389",
						"inbound_nodes": [
							[
								[
									"388",
									0,
									0,
									{}
								]
							]
						]
					},
					{
						"class_name": "BatchNormalization",
						"config": {
							"name": "390",
							"trainable": true,
							"dtype": "float32",
							"axis": [
								1
							],
							"momentum": 0.8999999761581421,
							"epsilon": 0.000009999999747378752,
							"center": true,
							"scale": true,
							"beta_initializer": {
								"class_name": "Zeros",
								"config": {}
							},
							"gamma_initializer": {
								"class_name": "Ones",
								"config": {}
							},
							"moving_mean_initializer": {
								"class_name": "Zeros",
								"config": {}
							},
							"moving_variance_initializer": {
								"class_name": "Ones",
								"config": {}
							},
							"beta_regularizer": null,
							"gamma_regularizer": null,
							"beta_constraint": null,
							"gamma_constraint": null
						},
						"name": "390",
						"inbound_nodes": [
							[
								[
									"389",
									0,
									0,
									{}
								]
							]
						]
					},
					{
						"class_name": "Activation",
						"config": {
							"name": "391",
							"trainable": true,
							"dtype": "float32",
							"activation": "relu"
						},
						"name": "391",
						"inbound_nodes": [
							[
								[
									"390",
									0,
									0,
									{}
								]
							]
						]
					},
					{
						"class_name": "ZeroPadding2D",
						"config": {
							"name": "392_pad",
							"trainable": true,
							"dtype": "float32",
							"padding": [
								[
									1,
									1
								],
								[
									1,
									1
								]
							],
							"data_format": "channels_first"
						},
						"name": "392_pad",
						"inbound_nodes": [
							[
								[
									"391",
									0,
									0,
									{}
								]
							]
						]
					},
					{
						"class_name": "Conv2D",
						"config": {
							"name": "392",
							"trainable": true,
							"dtype": "float32",
							"filters": 128,
							"kernel_size": [
								3,
								3
							],
							"strides": [
								1,
								1
							],
							"padding": "valid",
							"data_format": "channels_first",
							"dilation_rate": [
								1,
								1
							],
							"activation": "linear",
							"use_bias": false,
							"kernel_initializer": {
								"class_name": "Zeros",
								"config": {}
							},
							"bias_initializer": {
								"class_name": "Zeros",
								"config": {}
							},
							"kernel_regularizer": null,
							"bias_regularizer": null,
							"activity_regularizer": null,
							"kernel_constraint": null,
							"bias_constraint": null
						},
						"name": "392",
						"inbound_nodes": [
							[
								[
									"392_pad",
									0,
									0,
									{}
								]
							]
						]
					},
					{
						"class_name": "BatchNormalization",
						"config": {
							"name": "393",
							"trainable": true,
							"dtype": "float32",
							"axis": [
								1
							],
							"momentum": 0.8999999761581421,
							"epsilon": 0.000009999999747378752,
							"center": true,
							"scale": true,
							"beta_initializer": {
								"class_name": "Zeros",
								"config": {}
							},
							"gamma_initializer": {
								"class_name": "Ones",
								"config": {}
							},
							"moving_mean_initializer": {
								"class_name": "Zeros",
								"config": {}
							},
							"moving_variance_initializer": {
								"class_name": "Ones",
								"config": {}
							},
							"beta_regularizer": null,
							"gamma_regularizer": null,
							"beta_constraint": null,
							"gamma_constraint": null
						},
						"name": "393",
						"inbound_nodes": [
							[
								[
									"392",
									0,
									0,
									{}
								]
							]
						]
					},
					{
						"class_name": "Activation",
						"config": {
							"name": "394",
							"trainable": true,
							"dtype": "float32",
							"activation": "relu"
						},
						"name": "394",
						"inbound_nodes": [
							[
								[
									"393",
									0,
									0,
									{}
								]
							]
						]
					},
					{
						"class_name": "Conv2D",
						"config": {
							"name": "395",
							"trainable": true,
							"dtype": "float32",
							"filters": 512,
							"kernel_size": [
								1,
								1
							],
							"strides": [
								1,
								1
							],
							"padding": "valid",
							"data_format": "channels_first",
							"dilation_rate": [
								1,
								1
							],
							"activation": "linear",
							"use_bias": false,
							"kernel_initializer": {
								"class_name": "Zeros",
								"config": {}
							},
							"bias_initializer": {
								"class_name": "Zeros",
								"config": {}
							},
							"kernel_regularizer": null,
							"bias_regularizer": null,
							"activity_regularizer": null,
							"kernel_constraint": null,
							"bias_constraint": null
						},
						"name": "395",
						"inbound_nodes": [
							[
								[
									"394",
									0,
									0,
									{}
								]
							]
						]
					},
					{
						"class_name": "BatchNormalization",
						"config": {
							"name": "396",
							"trainable": true,
							"dtype": "float32",
							"axis": [
								1
							],
							"momentum": 0.8999999761581421,
							"epsilon": 0.000009999999747378752,
							"center": true,
							"scale": true,
							"beta_initializer": {
								"class_name": "Zeros",
								"config": {}
							},
							"gamma_initializer": {
								"class_name": "Ones",
								"config": {}
							},
							"moving_mean_initializer": {
								"class_name": "Zeros",
								"config": {}
							},
							"moving_variance_initializer": {
								"class_name": "Ones",
								"config": {}
							},
							"beta_regularizer": null,
							"gamma_regularizer": null,
							"beta_constraint": null,
							"gamma_constraint": null
						},
						"name": "396",
						"inbound_nodes": [
							[
								[
									"395",
									0,
									0,
									{}
								]
							]
						]
					},
					{
						"class_name": "Add",
						"config": {
							"name": "397",
							"trainable": true,
							"dtype": "float32"
						},
						"name": "397",
						"inbound_nodes": [
							[
								[
									"396",
									0,
									0,
									{}
								],
								[
									"388",
									0,
									0,
									{}
								]
							]
						]
					},
					{
						"class_name": "Activation",
						"config": {
							"name": "398",
							"trainable": true,
							"dtype": "float32",
							"activation": "relu"
						},
						"name": "398",
						"inbound_nodes": [
							[
								[
									"397",
									0,
									0,
									{}
								]
							]
						]
					},
					{
						"class_name": "Conv2D",
						"config": {
							"name": "399",
							"trainable": true,
							"dtype": "float32",
							"filters": 256,
							"kernel_size": [
								1,
								1
							],
							"strides": [
								1,
								1
							],
							"padding": "valid",
							"data_format": "channels_first",
							"dilation_rate": [
								1,
								1
							],
							"activation": "linear",
							"use_bias": false,
							"kernel_initializer": {
								"class_name": "Zeros",
								"config": {}
							},
							"bias_initializer": {
								"class_name": "Zeros",
								"config": {}
							},
							"kernel_regularizer": null,
							"bias_regularizer": null,
							"activity_regularizer": null,
							"kernel_constraint": null,
							"bias_constraint": null
						},
						"name": "399",
						"inbound_nodes": [
							[
								[
									"398",
									0,
									0,
									{}
								]
							]
						]
					},
					{
						"class_name": "BatchNormalization",
						"config": {
							"name": "400",
							"trainable": true,
							"dtype": "float32",
							"axis": [
								1
							],
							"momentum": 0.8999999761581421,
							"epsilon": 0.000009999999747378752,
							"center": true,
							"scale": true,
							"beta_initializer": {
								"class_name": "Zeros",
								"config": {}
							},
							"gamma_initializer": {
								"class_name": "Ones",
								"config": {}
							},
							"moving_mean_initializer": {
								"class_name": "Zeros",
								"config": {}
							},
							"moving_variance_initializer": {
								"class_name": "Ones",
								"config": {}
							},
							"beta_regularizer": null,
							"gamma_regularizer": null,
							"beta_constraint": null,
							"gamma_constraint": null
						},
						"name": "400",
						"inbound_nodes": [
							[
								[
									"399",
									0,
									0,
									{}
								]
							]
						]
					},
					{
						"class_name": "Activation",
						"config": {
							"name": "401",
							"trainable": true,
							"dtype": "float32",
							"activation": "relu"
						},
						"name": "401",
						"inbound_nodes": [
							[
								[
									"400",
									0,
									0,
									{}
								]
							]
						]
					},
					{
						"class_name": "ZeroPadding2D",
						"config": {
							"name": "402_pad",
							"trainable": true,
							"dtype": "float32",
							"padding": [
								[
									1,
									1
								],
								[
									1,
									1
								]
							],
							"data_format": "channels_first"
						},
						"name": "402_pad",
						"inbound_nodes": [
							[
								[
									"401",
									0,
									0,
									{}
								]
							]
						]
					},
					{
						"class_name": "Conv2D",
						"config": {
							"name": "402",
							"trainable": true,
							"dtype": "float32",
							"filters": 256,
							"kernel_size": [
								3,
								3
							],
							"strides": [
								2,
								2
							],
							"padding": "valid",
							"data_format": "channels_first",
							"dilation_rate": [
								1,
								1
							],
							"activation": "linear",
							"use_bias": false,
							"kernel_initializer": {
								"class_name": "Zeros",
								"config": {}
							},
							"bias_initializer": {
								"class_name": "Zeros",
								"config": {}
							},
							"kernel_regularizer": null,
							"bias_regularizer": null,
							"activity_regularizer": null,
							"kernel_constraint": null,
							"bias_constraint": null
						},
						"name": "402",
						"inbound_nodes": [
							[
								[
									"402_pad",
									0,
									0,
									{}
								]
							]
						]
					},
					{
						"class_name": "BatchNormalization",
						"config": {
							"name": "403",
							"trainable": true,
							"dtype": "float32",
							"axis": [
								1
							],
							"momentum": 0.8999999761581421,
							"epsilon": 0.000009999999747378752,
							"center": true,
							"scale": true,
							"beta_initializer": {
								"class_name": "Zeros",
								"config": {}
							},
							"gamma_initializer": {
								"class_name": "Ones",
								"config": {}
							},
							"moving_mean_initializer": {
								"class_name": "Zeros",
								"config": {}
							},
							"moving_variance_initializer": {
								"class_name": "Ones",
								"config": {}
							},
							"beta_regularizer": null,
							"gamma_regularizer": null,
							"beta_constraint": null,
							"gamma_constraint": null
						},
						"name": "403",
						"inbound_nodes": [
							[
								[
									"402",
									0,
									0,
									{}
								]
							]
						]
					},
					{
						"class_name": "Activation",
						"config": {
							"name": "404",
							"trainable": true,
							"dtype": "float32",
							"activation": "relu"
						},
						"name": "404",
						"inbound_nodes": [
							[
								[
									"403",
									0,
									0,
									{}
								]
							]
						]
					},
					{
						"class_name": "Conv2D",
						"config": {
							"name": "405",
							"trainable": true,
							"dtype": "float32",
							"filters": 1024,
							"kernel_size": [
								1,
								1
							],
							"strides": [
								1,
								1
							],
							"padding": "valid",
							"data_format": "channels_first",
							"dilation_rate": [
								1,
								1
							],
							"activation": "linear",
							"use_bias": false,
							"kernel_initializer": {
								"class_name": "Zeros",
								"config": {}
							},
							"bias_initializer": {
								"class_name": "Zeros",
								"config": {}
							},
							"kernel_regularizer": null,
							"bias_regularizer": null,
							"activity_regularizer": null,
							"kernel_constraint": null,
							"bias_constraint": null
						},
						"name": "405",
						"inbound_nodes": [
							[
								[
									"404",
									0,
									0,
									{}
								]
							]
						]
					},
					{
						"class_name": "Conv2D",
						"config": {
							"name": "407",
							"trainable": true,
							"dtype": "float32",
							"filters": 1024,
							"kernel_size": [
								1,
								1
							],
							"strides": [
								2,
								2
							],
							"padding": "valid",
							"data_format": "channels_first",
							"dilation_rate": [
								1,
								1
							],
							"activation": "linear",
							"use_bias": false,
							"kernel_initializer": {
								"class_name": "Zeros",
								"config": {}
							},
							"bias_initializer": {
								"class_name": "Zeros",
								"config": {}
							},
							"kernel_regularizer": null,
							"bias_regularizer": null,
							"activity_regularizer": null,
							"kernel_constraint": null,
							"bias_constraint": null
						},
						"name": "407",
						"inbound_nodes": [
							[
								[
									"398",
									0,
									0,
									{}
								]
							]
						]
					},
					{
						"class_name": "BatchNormalization",
						"config": {
							"name": "406",
							"trainable": true,
							"dtype": "float32",
							"axis": [
								1
							],
							"momentum": 0.8999999761581421,
							"epsilon": 0.000009999999747378752,
							"center": true,
							"scale": true,
							"beta_initializer": {
								"class_name": "Zeros",
								"config": {}
							},
							"gamma_initializer": {
								"class_name": "Ones",
								"config": {}
							},
							"moving_mean_initializer": {
								"class_name": "Zeros",
								"config": {}
							},
							"moving_variance_initializer": {
								"class_name": "Ones",
								"config": {}
							},
							"beta_regularizer": null,
							"gamma_regularizer": null,
							"beta_constraint": null,
							"gamma_constraint": null
						},
						"name": "406",
						"inbound_nodes": [
							[
								[
									"405",
									0,
									0,
									{}
								]
							]
						]
					},
					{
						"class_name": "BatchNormalization",
						"config": {
							"name": "408",
							"trainable": true,
							"dtype": "float32",
							"axis": [
								1
							],
							"momentum": 0.8999999761581421,
							"epsilon": 0.000009999999747378752,
							"center": true,
							"scale": true,
							"beta_initializer": {
								"class_name": "Zeros",
								"config": {}
							},
							"gamma_initializer": {
								"class_name": "Ones",
								"config": {}
							},
							"moving_mean_initializer": {
								"class_name": "Zeros",
								"config": {}
							},
							"moving_variance_initializer": {
								"class_name": "Ones",
								"config": {}
							},
							"beta_regularizer": null,
							"gamma_regularizer": null,
							"beta_constraint": null,
							"gamma_constraint": null
						},
						"name": "408",
						"inbound_nodes": [
							[
								[
									"407",
									0,
									0,
									{}
								]
							]
						]
					},
					{
						"class_name": "Add",
						"config": {
							"name": "409",
							"trainable": true,
							"dtype": "float32"
						},
						"name": "409",
						"inbound_nodes": [
							[
								[
									"406",
									0,
									0,
									{}
								],
								[
									"408",
									0,
									0,
									{}
								]
							]
						]
					},
					{
						"class_name": "Activation",
						"config": {
							"name": "410",
							"trainable": true,
							"dtype": "float32",
							"activation": "relu"
						},
						"name": "410",
						"inbound_nodes": [
							[
								[
									"409",
									0,
									0,
									{}
								]
							]
						]
					},
					{
						"class_name": "Conv2D",
						"config": {
							"name": "411",
							"trainable": true,
							"dtype": "float32",
							"filters": 256,
							"kernel_size": [
								1,
								1
							],
							"strides": [
								1,
								1
							],
							"padding": "valid",
							"data_format": "channels_first",
							"dilation_rate": [
								1,
								1
							],
							"activation": "linear",
							"use_bias": false,
							"kernel_initializer": {
								"class_name": "Zeros",
								"config": {}
							},
							"bias_initializer": {
								"class_name": "Zeros",
								"config": {}
							},
							"kernel_regularizer": null,
							"bias_regularizer": null,
							"activity_regularizer": null,
							"kernel_constraint": null,
							"bias_constraint": null
						},
						"name": "411",
						"inbound_nodes": [
							[
								[
									"410",
									0,
									0,
									{}
								]
							]
						]
					},
					{
						"class_name": "BatchNormalization",
						"config": {
							"name": "412",
							"trainable": true,
							"dtype": "float32",
							"axis": [
								1
							],
							"momentum": 0.8999999761581421,
							"epsilon": 0.000009999999747378752,
							"center": true,
							"scale": true,
							"beta_initializer": {
								"class_name": "Zeros",
								"config": {}
							},
							"gamma_initializer": {
								"class_name": "Ones",
								"config": {}
							},
							"moving_mean_initializer": {
								"class_name": "Zeros",
								"config": {}
							},
							"moving_variance_initializer": {
								"class_name": "Ones",
								"config": {}
							},
							"beta_regularizer": null,
							"gamma_regularizer": null,
							"beta_constraint": null,
							"gamma_constraint": null
						},
						"name": "412",
						"inbound_nodes": [
							[
								[
									"411",
									0,
									0,
									{}
								]
							]
						]
					},
					{
						"class_name": "Activation",
						"config": {
							"name": "413",
							"trainable": true,
							"dtype": "float32",
							"activation": "relu"
						},
						"name": "413",
						"inbound_nodes": [
							[
								[
									"412",
									0,
									0,
									{}
								]
							]
						]
					},
					{
						"class_name": "ZeroPadding2D",
						"config": {
							"name": "414_pad",
							"trainable": true,
							"dtype": "float32",
							"padding": [
								[
									1,
									1
								],
								[
									1,
									1
								]
							],
							"data_format": "channels_first"
						},
						"name": "414_pad",
						"inbound_nodes": [
							[
								[
									"413",
									0,
									0,
									{}
								]
							]
						]
					},
					{
						"class_name": "Conv2D",
						"config": {
							"name": "414",
							"trainable": true,
							"dtype": "float32",
							"filters": 256,
							"kernel_size": [
								3,
								3
							],
							"strides": [
								1,
								1
							],
							"padding": "valid",
							"data_format": "channels_first",
							"dilation_rate": [
								1,
								1
							],
							"activation": "linear",
							"use_bias": false,
							"kernel_initializer": {
								"class_name": "Zeros",
								"config": {}
							},
							"bias_initializer": {
								"class_name": "Zeros",
								"config": {}
							},
							"kernel_regularizer": null,
							"bias_regularizer": null,
							"activity_regularizer": null,
							"kernel_constraint": null,
							"bias_constraint": null
						},
						"name": "414",
						"inbound_nodes": [
							[
								[
									"414_pad",
									0,
									0,
									{}
								]
							]
						]
					},
					{
						"class_name": "BatchNormalization",
						"config": {
							"name": "415",
							"trainable": true,
							"dtype": "float32",
							"axis": [
								1
							],
							"momentum": 0.8999999761581421,
							"epsilon": 0.000009999999747378752,
							"center": true,
							"scale": true,
							"beta_initializer": {
								"class_name": "Zeros",
								"config": {}
							},
							"gamma_initializer": {
								"class_name": "Ones",
								"config": {}
							},
							"moving_mean_initializer": {
								"class_name": "Zeros",
								"config": {}
							},
							"moving_variance_initializer": {
								"class_name": "Ones",
								"config": {}
							},
							"beta_regularizer": null,
							"gamma_regularizer": null,
							"beta_constraint": null,
							"gamma_constraint": null
						},
						"name": "415",
						"inbound_nodes": [
							[
								[
									"414",
									0,
									0,
									{}
								]
							]
						]
					},
					{
						"class_name": "Activation",
						"config": {
							"name": "416",
							"trainable": true,
							"dtype": "float32",
							"activation": "relu"
						},
						"name": "416",
						"inbound_nodes": [
							[
								[
									"415",
									0,
									0,
									{}
								]
							]
						]
					},
					{
						"class_name": "Conv2D",
						"config": {
							"name": "417",
							"trainable": true,
							"dtype": "float32",
							"filters": 1024,
							"kernel_size": [
								1,
								1
							],
							"strides": [
								1,
								1
							],
							"padding": "valid",
							"data_format": "channels_first",
							"dilation_rate": [
								1,
								1
							],
							"activation": "linear",
							"use_bias": false,
							"kernel_initializer": {
								"class_name": "Zeros",
								"config": {}
							},
							"bias_initializer": {
								"class_name": "Zeros",
								"config": {}
							},
							"kernel_regularizer": null,
							"bias_regularizer": null,
							"activity_regularizer": null,
							"kernel_constraint": null,
							"bias_constraint": null
						},
						"name": "417",
						"inbound_nodes": [
							[
								[
									"416",
									0,
									0,
									{}
								]
							]
						]
					},
					{
						"class_name": "BatchNormalization",
						"config": {
							"name": "418",
							"trainable": true,
							"dtype": "float32",
							"axis": [
								1
							],
							"momentum": 0.8999999761581421,
							"epsilon": 0.000009999999747378752,
							"center": true,
							"scale": true,
							"beta_initializer": {
								"class_name": "Zeros",
								"config": {}
							},
							"gamma_initializer": {
								"class_name": "Ones",
								"config": {}
							},
							"moving_mean_initializer": {
								"class_name": "Zeros",
								"config": {}
							},
							"moving_variance_initializer": {
								"class_name": "Ones",
								"config": {}
							},
							"beta_regularizer": null,
							"gamma_regularizer": null,
							"beta_constraint": null,
							"gamma_constraint": null
						},
						"name": "418",
						"inbound_nodes": [
							[
								[
									"417",
									0,
									0,
									{}
								]
							]
						]
					},
					{
						"class_name": "Add",
						"config": {
							"name": "419",
							"trainable": true,
							"dtype": "float32"
						},
						"name": "419",
						"inbound_nodes": [
							[
								[
									"418",
									0,
									0,
									{}
								],
								[
									"410",
									0,
									0,
									{}
								]
							]
						]
					},
					{
						"class_name": "Activation",
						"config": {
							"name": "420",
							"trainable": true,
							"dtype": "float32",
							"activation": "relu"
						},
						"name": "420",
						"inbound_nodes": [
							[
								[
									"419",
									0,
									0,
									{}
								]
							]
						]
					},
					{
						"class_name": "Conv2D",
						"config": {
							"name": "421",
							"trainable": true,
							"dtype": "float32",
							"filters": 256,
							"kernel_size": [
								1,
								1
							],
							"strides": [
								1,
								1
							],
							"padding": "valid",
							"data_format": "channels_first",
							"dilation_rate": [
								1,
								1
							],
							"activation": "linear",
							"use_bias": false,
							"kernel_initializer": {
								"class_name": "Zeros",
								"config": {}
							},
							"bias_initializer": {
								"class_name": "Zeros",
								"config": {}
							},
							"kernel_regularizer": null,
							"bias_regularizer": null,
							"activity_regularizer": null,
							"kernel_constraint": null,
							"bias_constraint": null
						},
						"name": "421",
						"inbound_nodes": [
							[
								[
									"420",
									0,
									0,
									{}
								]
							]
						]
					},
					{
						"class_name": "BatchNormalization",
						"config": {
							"name": "422",
							"trainable": true,
							"dtype": "float32",
							"axis": [
								1
							],
							"momentum": 0.8999999761581421,
							"epsilon": 0.000009999999747378752,
							"center": true,
							"scale": true,
							"beta_initializer": {
								"class_name": "Zeros",
								"config": {}
							},
							"gamma_initializer": {
								"class_name": "Ones",
								"config": {}
							},
							"moving_mean_initializer": {
								"class_name": "Zeros",
								"config": {}
							},
							"moving_variance_initializer": {
								"class_name": "Ones",
								"config": {}
							},
							"beta_regularizer": null,
							"gamma_regularizer": null,
							"beta_constraint": null,
							"gamma_constraint": null
						},
						"name": "422",
						"inbound_nodes": [
							[
								[
									"421",
									0,
									0,
									{}
								]
							]
						]
					},
					{
						"class_name": "Activation",
						"config": {
							"name": "423",
							"trainable": true,
							"dtype": "float32",
							"activation": "relu"
						},
						"name": "423",
						"inbound_nodes": [
							[
								[
									"422",
									0,
									0,
									{}
								]
							]
						]
					},
					{
						"class_name": "ZeroPadding2D",
						"config": {
							"name": "424_pad",
							"trainable": true,
							"dtype": "float32",
							"padding": [
								[
									1,
									1
								],
								[
									1,
									1
								]
							],
							"data_format": "channels_first"
						},
						"name": "424_pad",
						"inbound_nodes": [
							[
								[
									"423",
									0,
									0,
									{}
								]
							]
						]
					},
					{
						"class_name": "Conv2D",
						"config": {
							"name": "424",
							"trainable": true,
							"dtype": "float32",
							"filters": 256,
							"kernel_size": [
								3,
								3
							],
							"strides": [
								1,
								1
							],
							"padding": "valid",
							"data_format": "channels_first",
							"dilation_rate": [
								1,
								1
							],
							"activation": "linear",
							"use_bias": false,
							"kernel_initializer": {
								"class_name": "Zeros",
								"config": {}
							},
							"bias_initializer": {
								"class_name": "Zeros",
								"config": {}
							},
							"kernel_regularizer": null,
							"bias_regularizer": null,
							"activity_regularizer": null,
							"kernel_constraint": null,
							"bias_constraint": null
						},
						"name": "424",
						"inbound_nodes": [
							[
								[
									"424_pad",
									0,
									0,
									{}
								]
							]
						]
					},
					{
						"class_name": "BatchNormalization",
						"config": {
							"name": "425",
							"trainable": true,
							"dtype": "float32",
							"axis": [
								1
							],
							"momentum": 0.8999999761581421,
							"epsilon": 0.000009999999747378752,
							"center": true,
							"scale": true,
							"beta_initializer": {
								"class_name": "Zeros",
								"config": {}
							},
							"gamma_initializer": {
								"class_name": "Ones",
								"config": {}
							},
							"moving_mean_initializer": {
								"class_name": "Zeros",
								"config": {}
							},
							"moving_variance_initializer": {
								"class_name": "Ones",
								"config": {}
							},
							"beta_regularizer": null,
							"gamma_regularizer": null,
							"beta_constraint": null,
							"gamma_constraint": null
						},
						"name": "425",
						"inbound_nodes": [
							[
								[
									"424",
									0,
									0,
									{}
								]
							]
						]
					},
					{
						"class_name": "Activation",
						"config": {
							"name": "426",
							"trainable": true,
							"dtype": "float32",
							"activation": "relu"
						},
						"name": "426",
						"inbound_nodes": [
							[
								[
									"425",
									0,
									0,
									{}
								]
							]
						]
					},
					{
						"class_name": "Conv2D",
						"config": {
							"name": "427",
							"trainable": true,
							"dtype": "float32",
							"filters": 1024,
							"kernel_size": [
								1,
								1
							],
							"strides": [
								1,
								1
							],
							"padding": "valid",
							"data_format": "channels_first",
							"dilation_rate": [
								1,
								1
							],
							"activation": "linear",
							"use_bias": false,
							"kernel_initializer": {
								"class_name": "Zeros",
								"config": {}
							},
							"bias_initializer": {
								"class_name": "Zeros",
								"config": {}
							},
							"kernel_regularizer": null,
							"bias_regularizer": null,
							"activity_regularizer": null,
							"kernel_constraint": null,
							"bias_constraint": null
						},
						"name": "427",
						"inbound_nodes": [
							[
								[
									"426",
									0,
									0,
									{}
								]
							]
						]
					},
					{
						"class_name": "BatchNormalization",
						"config": {
							"name": "428",
							"trainable": true,
							"dtype": "float32",
							"axis": [
								1
							],
							"momentum": 0.8999999761581421,
							"epsilon": 0.000009999999747378752,
							"center": true,
							"scale": true,
							"beta_initializer": {
								"class_name": "Zeros",
								"config": {}
							},
							"gamma_initializer": {
								"class_name": "Ones",
								"config": {}
							},
							"moving_mean_initializer": {
								"class_name": "Zeros",
								"config": {}
							},
							"moving_variance_initializer": {
								"class_name": "Ones",
								"config": {}
							},
							"beta_regularizer": null,
							"gamma_regularizer": null,
							"beta_constraint": null,
							"gamma_constraint": null
						},
						"name": "428",
						"inbound_nodes": [
							[
								[
									"427",
									0,
									0,
									{}
								]
							]
						]
					},
					{
						"class_name": "Add",
						"config": {
							"name": "429",
							"trainable": true,
							"dtype": "float32"
						},
						"name": "429",
						"inbound_nodes": [
							[
								[
									"428",
									0,
									0,
									{}
								],
								[
									"420",
									0,
									0,
									{}
								]
							]
						]
					},
					{
						"class_name": "Activation",
						"config": {
							"name": "430",
							"trainable": true,
							"dtype": "float32",
							"activation": "relu"
						},
						"name": "430",
						"inbound_nodes": [
							[
								[
									"429",
									0,
									0,
									{}
								]
							]
						]
					},
					{
						"class_name": "Conv2D",
						"config": {
							"name": "431",
							"trainable": true,
							"dtype": "float32",
							"filters": 256,
							"kernel_size": [
								1,
								1
							],
							"strides": [
								1,
								1
							],
							"padding": "valid",
							"data_format": "channels_first",
							"dilation_rate": [
								1,
								1
							],
							"activation": "linear",
							"use_bias": false,
							"kernel_initializer": {
								"class_name": "Zeros",
								"config": {}
							},
							"bias_initializer": {
								"class_name": "Zeros",
								"config": {}
							},
							"kernel_regularizer": null,
							"bias_regularizer": null,
							"activity_regularizer": null,
							"kernel_constraint": null,
							"bias_constraint": null
						},
						"name": "431",
						"inbound_nodes": [
							[
								[
									"430",
									0,
									0,
									{}
								]
							]
						]
					},
					{
						"class_name": "BatchNormalization",
						"config": {
							"name": "432",
							"trainable": true,
							"dtype": "float32",
							"axis": [
								1
							],
							"momentum": 0.8999999761581421,
							"epsilon": 0.000009999999747378752,
							"center": true,
							"scale": true,
							"beta_initializer": {
								"class_name": "Zeros",
								"config": {}
							},
							"gamma_initializer": {
								"class_name": "Ones",
								"config": {}
							},
							"moving_mean_initializer": {
								"class_name": "Zeros",
								"config": {}
							},
							"moving_variance_initializer": {
								"class_name": "Ones",
								"config": {}
							},
							"beta_regularizer": null,
							"gamma_regularizer": null,
							"beta_constraint": null,
							"gamma_constraint": null
						},
						"name": "432",
						"inbound_nodes": [
							[
								[
									"431",
									0,
									0,
									{}
								]
							]
						]
					},
					{
						"class_name": "Activation",
						"config": {
							"name": "433",
							"trainable": true,
							"dtype": "float32",
							"activation": "relu"
						},
						"name": "433",
						"inbound_nodes": [
							[
								[
									"432",
									0,
									0,
									{}
								]
							]
						]
					},
					{
						"class_name": "ZeroPadding2D",
						"config": {
							"name": "434_pad",
							"trainable": true,
							"dtype": "float32",
							"padding": [
								[
									1,
									1
								],
								[
									1,
									1
								]
							],
							"data_format": "channels_first"
						},
						"name": "434_pad",
						"inbound_nodes": [
							[
								[
									"433",
									0,
									0,
									{}
								]
							]
						]
					},
					{
						"class_name": "Conv2D",
						"config": {
							"name": "434",
							"trainable": true,
							"dtype": "float32",
							"filters": 256,
							"kernel_size": [
								3,
								3
							],
							"strides": [
								1,
								1
							],
							"padding": "valid",
							"data_format": "channels_first",
							"dilation_rate": [
								1,
								1
							],
							"activation": "linear",
							"use_bias": false,
							"kernel_initializer": {
								"class_name": "Zeros",
								"config": {}
							},
							"bias_initializer": {
								"class_name": "Zeros",
								"config": {}
							},
							"kernel_regularizer": null,
							"bias_regularizer": null,
							"activity_regularizer": null,
							"kernel_constraint": null,
							"bias_constraint": null
						},
						"name": "434",
						"inbound_nodes": [
							[
								[
									"434_pad",
									0,
									0,
									{}
								]
							]
						]
					},
					{
						"class_name": "BatchNormalization",
						"config": {
							"name": "435",
							"trainable": true,
							"dtype": "float32",
							"axis": [
								1
							],
							"momentum": 0.8999999761581421,
							"epsilon": 0.000009999999747378752,
							"center": true,
							"scale": true,
							"beta_initializer": {
								"class_name": "Zeros",
								"config": {}
							},
							"gamma_initializer": {
								"class_name": "Ones",
								"config": {}
							},
							"moving_mean_initializer": {
								"class_name": "Zeros",
								"config": {}
							},
							"moving_variance_initializer": {
								"class_name": "Ones",
								"config": {}
							},
							"beta_regularizer": null,
							"gamma_regularizer": null,
							"beta_constraint": null,
							"gamma_constraint": null
						},
						"name": "435",
						"inbound_nodes": [
							[
								[
									"434",
									0,
									0,
									{}
								]
							]
						]
					},
					{
						"class_name": "Activation",
						"config": {
							"name": "436",
							"trainable": true,
							"dtype": "float32",
							"activation": "relu"
						},
						"name": "436",
						"inbound_nodes": [
							[
								[
									"435",
									0,
									0,
									{}
								]
							]
						]
					},
					{
						"class_name": "Conv2D",
						"config": {
							"name": "437",
							"trainable": true,
							"dtype": "float32",
							"filters": 1024,
							"kernel_size": [
								1,
								1
							],
							"strides": [
								1,
								1
							],
							"padding": "valid",
							"data_format": "channels_first",
							"dilation_rate": [
								1,
								1
							],
							"activation": "linear",
							"use_bias": false,
							"kernel_initializer": {
								"class_name": "Zeros",
								"config": {}
							},
							"bias_initializer": {
								"class_name": "Zeros",
								"config": {}
							},
							"kernel_regularizer": null,
							"bias_regularizer": null,
							"activity_regularizer": null,
							"kernel_constraint": null,
							"bias_constraint": null
						},
						"name": "437",
						"inbound_nodes": [
							[
								[
									"436",
									0,
									0,
									{}
								]
							]
						]
					},
					{
						"class_name": "BatchNormalization",
						"config": {
							"name": "438",
							"trainable": true,
							"dtype": "float32",
							"axis": [
								1
							],
							"momentum": 0.8999999761581421,
							"epsilon": 0.000009999999747378752,
							"center": true,
							"scale": true,
							"beta_initializer": {
								"class_name": "Zeros",
								"config": {}
							},
							"gamma_initializer": {
								"class_name": "Ones",
								"config": {}
							},
							"moving_mean_initializer": {
								"class_name": "Zeros",
								"config": {}
							},
							"moving_variance_initializer": {
								"class_name": "Ones",
								"config": {}
							},
							"beta_regularizer": null,
							"gamma_regularizer": null,
							"beta_constraint": null,
							"gamma_constraint": null
						},
						"name": "438",
						"inbound_nodes": [
							[
								[
									"437",
									0,
									0,
									{}
								]
							]
						]
					},
					{
						"class_name": "Add",
						"config": {
							"name": "439",
							"trainable": true,
							"dtype": "float32"
						},
						"name": "439",
						"inbound_nodes": [
							[
								[
									"438",
									0,
									0,
									{}
								],
								[
									"430",
									0,
									0,
									{}
								]
							]
						]
					},
					{
						"class_name": "Activation",
						"config": {
							"name": "440",
							"trainable": true,
							"dtype": "float32",
							"activation": "relu"
						},
						"name": "440",
						"inbound_nodes": [
							[
								[
									"439",
									0,
									0,
									{}
								]
							]
						]
					},
					{
						"class_name": "Conv2D",
						"config": {
							"name": "441",
							"trainable": true,
							"dtype": "float32",
							"filters": 256,
							"kernel_size": [
								1,
								1
							],
							"strides": [
								1,
								1
							],
							"padding": "valid",
							"data_format": "channels_first",
							"dilation_rate": [
								1,
								1
							],
							"activation": "linear",
							"use_bias": false,
							"kernel_initializer": {
								"class_name": "Zeros",
								"config": {}
							},
							"bias_initializer": {
								"class_name": "Zeros",
								"config": {}
							},
							"kernel_regularizer": null,
							"bias_regularizer": null,
							"activity_regularizer": null,
							"kernel_constraint": null,
							"bias_constraint": null
						},
						"name": "441",
						"inbound_nodes": [
							[
								[
									"440",
									0,
									0,
									{}
								]
							]
						]
					},
					{
						"class_name": "BatchNormalization",
						"config": {
							"name": "442",
							"trainable": true,
							"dtype": "float32",
							"axis": [
								1
							],
							"momentum": 0.8999999761581421,
							"epsilon": 0.000009999999747378752,
							"center": true,
							"scale": true,
							"beta_initializer": {
								"class_name": "Zeros",
								"config": {}
							},
							"gamma_initializer": {
								"class_name": "Ones",
								"config": {}
							},
							"moving_mean_initializer": {
								"class_name": "Zeros",
								"config": {}
							},
							"moving_variance_initializer": {
								"class_name": "Ones",
								"config": {}
							},
							"beta_regularizer": null,
							"gamma_regularizer": null,
							"beta_constraint": null,
							"gamma_constraint": null
						},
						"name": "442",
						"inbound_nodes": [
							[
								[
									"441",
									0,
									0,
									{}
								]
							]
						]
					},
					{
						"class_name": "Activation",
						"config": {
							"name": "443",
							"trainable": true,
							"dtype": "float32",
							"activation": "relu"
						},
						"name": "443",
						"inbound_nodes": [
							[
								[
									"442",
									0,
									0,
									{}
								]
							]
						]
					},
					{
						"class_name": "ZeroPadding2D",
						"config": {
							"name": "444_pad",
							"trainable": true,
							"dtype": "float32",
							"padding": [
								[
									1,
									1
								],
								[
									1,
									1
								]
							],
							"data_format": "channels_first"
						},
						"name": "444_pad",
						"inbound_nodes": [
							[
								[
									"443",
									0,
									0,
									{}
								]
							]
						]
					},
					{
						"class_name": "Conv2D",
						"config": {
							"name": "444",
							"trainable": true,
							"dtype": "float32",
							"filters": 256,
							"kernel_size": [
								3,
								3
							],
							"strides": [
								1,
								1
							],
							"padding": "valid",
							"data_format": "channels_first",
							"dilation_rate": [
								1,
								1
							],
							"activation": "linear",
							"use_bias": false,
							"kernel_initializer": {
								"class_name": "Zeros",
								"config": {}
							},
							"bias_initializer": {
								"class_name": "Zeros",
								"config": {}
							},
							"kernel_regularizer": null,
							"bias_regularizer": null,
							"activity_regularizer": null,
							"kernel_constraint": null,
							"bias_constraint": null
						},
						"name": "444",
						"inbound_nodes": [
							[
								[
									"444_pad",
									0,
									0,
									{}
								]
							]
						]
					},
					{
						"class_name": "BatchNormalization",
						"config": {
							"name": "445",
							"trainable": true,
							"dtype": "float32",
							"axis": [
								1
							],
							"momentum": 0.8999999761581421,
							"epsilon": 0.000009999999747378752,
							"center": true,
							"scale": true,
							"beta_initializer": {
								"class_name": "Zeros",
								"config": {}
							},
							"gamma_initializer": {
								"class_name": "Ones",
								"config": {}
							},
							"moving_mean_initializer": {
								"class_name": "Zeros",
								"config": {}
							},
							"moving_variance_initializer": {
								"class_name": "Ones",
								"config": {}
							},
							"beta_regularizer": null,
							"gamma_regularizer": null,
							"beta_constraint": null,
							"gamma_constraint": null
						},
						"name": "445",
						"inbound_nodes": [
							[
								[
									"444",
									0,
									0,
									{}
								]
							]
						]
					},
					{
						"class_name": "Activation",
						"config": {
							"name": "446",
							"trainable": true,
							"dtype": "float32",
							"activation": "relu"
						},
						"name": "446",
						"inbound_nodes": [
							[
								[
									"445",
									0,
									0,
									{}
								]
							]
						]
					},
					{
						"class_name": "Conv2D",
						"config": {
							"name": "447",
							"trainable": true,
							"dtype": "float32",
							"filters": 1024,
							"kernel_size": [
								1,
								1
							],
							"strides": [
								1,
								1
							],
							"padding": "valid",
							"data_format": "channels_first",
							"dilation_rate": [
								1,
								1
							],
							"activation": "linear",
							"use_bias": false,
							"kernel_initializer": {
								"class_name": "Zeros",
								"config": {}
							},
							"bias_initializer": {
								"class_name": "Zeros",
								"config": {}
							},
							"kernel_regularizer": null,
							"bias_regularizer": null,
							"activity_regularizer": null,
							"kernel_constraint": null,
							"bias_constraint": null
						},
						"name": "447",
						"inbound_nodes": [
							[
								[
									"446",
									0,
									0,
									{}
								]
							]
						]
					},
					{
						"class_name": "BatchNormalization",
						"config": {
							"name": "448",
							"trainable": true,
							"dtype": "float32",
							"axis": [
								1
							],
							"momentum": 0.8999999761581421,
							"epsilon": 0.000009999999747378752,
							"center": true,
							"scale": true,
							"beta_initializer": {
								"class_name": "Zeros",
								"config": {}
							},
							"gamma_initializer": {
								"class_name": "Ones",
								"config": {}
							},
							"moving_mean_initializer": {
								"class_name": "Zeros",
								"config": {}
							},
							"moving_variance_initializer": {
								"class_name": "Ones",
								"config": {}
							},
							"beta_regularizer": null,
							"gamma_regularizer": null,
							"beta_constraint": null,
							"gamma_constraint": null
						},
						"name": "448",
						"inbound_nodes": [
							[
								[
									"447",
									0,
									0,
									{}
								]
							]
						]
					},
					{
						"class_name": "Add",
						"config": {
							"name": "449",
							"trainable": true,
							"dtype": "float32"
						},
						"name": "449",
						"inbound_nodes": [
							[
								[
									"448",
									0,
									0,
									{}
								],
								[
									"440",
									0,
									0,
									{}
								]
							]
						]
					},
					{
						"class_name": "Activation",
						"config": {
							"name": "450",
							"trainable": true,
							"dtype": "float32",
							"activation": "relu"
						},
						"name": "450",
						"inbound_nodes": [
							[
								[
									"449",
									0,
									0,
									{}
								]
							]
						]
					},
					{
						"class_name": "Conv2D",
						"config": {
							"name": "451",
							"trainable": true,
							"dtype": "float32",
							"filters": 256,
							"kernel_size": [
								1,
								1
							],
							"strides": [
								1,
								1
							],
							"padding": "valid",
							"data_format": "channels_first",
							"dilation_rate": [
								1,
								1
							],
							"activation": "linear",
							"use_bias": false,
							"kernel_initializer": {
								"class_name": "Zeros",
								"config": {}
							},
							"bias_initializer": {
								"class_name": "Zeros",
								"config": {}
							},
							"kernel_regularizer": null,
							"bias_regularizer": null,
							"activity_regularizer": null,
							"kernel_constraint": null,
							"bias_constraint": null
						},
						"name": "451",
						"inbound_nodes": [
							[
								[
									"450",
									0,
									0,
									{}
								]
							]
						]
					},
					{
						"class_name": "BatchNormalization",
						"config": {
							"name": "452",
							"trainable": true,
							"dtype": "float32",
							"axis": [
								1
							],
							"momentum": 0.8999999761581421,
							"epsilon": 0.000009999999747378752,
							"center": true,
							"scale": true,
							"beta_initializer": {
								"class_name": "Zeros",
								"config": {}
							},
							"gamma_initializer": {
								"class_name": "Ones",
								"config": {}
							},
							"moving_mean_initializer": {
								"class_name": "Zeros",
								"config": {}
							},
							"moving_variance_initializer": {
								"class_name": "Ones",
								"config": {}
							},
							"beta_regularizer": null,
							"gamma_regularizer": null,
							"beta_constraint": null,
							"gamma_constraint": null
						},
						"name": "452",
						"inbound_nodes": [
							[
								[
									"451",
									0,
									0,
									{}
								]
							]
						]
					},
					{
						"class_name": "Activation",
						"config": {
							"name": "453",
							"trainable": true,
							"dtype": "float32",
							"activation": "relu"
						},
						"name": "453",
						"inbound_nodes": [
							[
								[
									"452",
									0,
									0,
									{}
								]
							]
						]
					},
					{
						"class_name": "ZeroPadding2D",
						"config": {
							"name": "454_pad",
							"trainable": true,
							"dtype": "float32",
							"padding": [
								[
									1,
									1
								],
								[
									1,
									1
								]
							],
							"data_format": "channels_first"
						},
						"name": "454_pad",
						"inbound_nodes": [
							[
								[
									"453",
									0,
									0,
									{}
								]
							]
						]
					},
					{
						"class_name": "Conv2D",
						"config": {
							"name": "454",
							"trainable": true,
							"dtype": "float32",
							"filters": 256,
							"kernel_size": [
								3,
								3
							],
							"strides": [
								1,
								1
							],
							"padding": "valid",
							"data_format": "channels_first",
							"dilation_rate": [
								1,
								1
							],
							"activation": "linear",
							"use_bias": false,
							"kernel_initializer": {
								"class_name": "Zeros",
								"config": {}
							},
							"bias_initializer": {
								"class_name": "Zeros",
								"config": {}
							},
							"kernel_regularizer": null,
							"bias_regularizer": null,
							"activity_regularizer": null,
							"kernel_constraint": null,
							"bias_constraint": null
						},
						"name": "454",
						"inbound_nodes": [
							[
								[
									"454_pad",
									0,
									0,
									{}
								]
							]
						]
					},
					{
						"class_name": "BatchNormalization",
						"config": {
							"name": "455",
							"trainable": true,
							"dtype": "float32",
							"axis": [
								1
							],
							"momentum": 0.8999999761581421,
							"epsilon": 0.000009999999747378752,
							"center": true,
							"scale": true,
							"beta_initializer": {
								"class_name": "Zeros",
								"config": {}
							},
							"gamma_initializer": {
								"class_name": "Ones",
								"config": {}
							},
							"moving_mean_initializer": {
								"class_name": "Zeros",
								"config": {}
							},
							"moving_variance_initializer": {
								"class_name": "Ones",
								"config": {}
							},
							"beta_regularizer": null,
							"gamma_regularizer": null,
							"beta_constraint": null,
							"gamma_constraint": null
						},
						"name": "455",
						"inbound_nodes": [
							[
								[
									"454",
									0,
									0,
									{}
								]
							]
						]
					},
					{
						"class_name": "Activation",
						"config": {
							"name": "456",
							"trainable": true,
							"dtype": "float32",
							"activation": "relu"
						},
						"name": "456",
						"inbound_nodes": [
							[
								[
									"455",
									0,
									0,
									{}
								]
							]
						]
					},
					{
						"class_name": "Conv2D",
						"config": {
							"name": "457",
							"trainable": true,
							"dtype": "float32",
							"filters": 1024,
							"kernel_size": [
								1,
								1
							],
							"strides": [
								1,
								1
							],
							"padding": "valid",
							"data_format": "channels_first",
							"dilation_rate": [
								1,
								1
							],
							"activation": "linear",
							"use_bias": false,
							"kernel_initializer": {
								"class_name": "Zeros",
								"config": {}
							},
							"bias_initializer": {
								"class_name": "Zeros",
								"config": {}
							},
							"kernel_regularizer": null,
							"bias_regularizer": null,
							"activity_regularizer": null,
							"kernel_constraint": null,
							"bias_constraint": null
						},
						"name": "457",
						"inbound_nodes": [
							[
								[
									"456",
									0,
									0,
									{}
								]
							]
						]
					},
					{
						"class_name": "BatchNormalization",
						"config": {
							"name": "458",
							"trainable": true,
							"dtype": "float32",
							"axis": [
								1
							],
							"momentum": 0.8999999761581421,
							"epsilon": 0.000009999999747378752,
							"center": true,
							"scale": true,
							"beta_initializer": {
								"class_name": "Zeros",
								"config": {}
							},
							"gamma_initializer": {
								"class_name": "Ones",
								"config": {}
							},
							"moving_mean_initializer": {
								"class_name": "Zeros",
								"config": {}
							},
							"moving_variance_initializer": {
								"class_name": "Ones",
								"config": {}
							},
							"beta_regularizer": null,
							"gamma_regularizer": null,
							"beta_constraint": null,
							"gamma_constraint": null
						},
						"name": "458",
						"inbound_nodes": [
							[
								[
									"457",
									0,
									0,
									{}
								]
							]
						]
					},
					{
						"class_name": "Add",
						"config": {
							"name": "459",
							"trainable": true,
							"dtype": "float32"
						},
						"name": "459",
						"inbound_nodes": [
							[
								[
									"458",
									0,
									0,
									{}
								],
								[
									"450",
									0,
									0,
									{}
								]
							]
						]
					},
					{
						"class_name": "Activation",
						"config": {
							"name": "460",
							"trainable": true,
							"dtype": "float32",
							"activation": "relu"
						},
						"name": "460",
						"inbound_nodes": [
							[
								[
									"459",
									0,
									0,
									{}
								]
							]
						]
					},
					{
						"class_name": "Conv2D",
						"config": {
							"name": "461",
							"trainable": true,
							"dtype": "float32",
							"filters": 512,
							"kernel_size": [
								1,
								1
							],
							"strides": [
								1,
								1
							],
							"padding": "valid",
							"data_format": "channels_first",
							"dilation_rate": [
								1,
								1
							],
							"activation": "linear",
							"use_bias": false,
							"kernel_initializer": {
								"class_name": "Zeros",
								"config": {}
							},
							"bias_initializer": {
								"class_name": "Zeros",
								"config": {}
							},
							"kernel_regularizer": null,
							"bias_regularizer": null,
							"activity_regularizer": null,
							"kernel_constraint": null,
							"bias_constraint": null
						},
						"name": "461",
						"inbound_nodes": [
							[
								[
									"460",
									0,
									0,
									{}
								]
							]
						]
					},
					{
						"class_name": "BatchNormalization",
						"config": {
							"name": "462",
							"trainable": true,
							"dtype": "float32",
							"axis": [
								1
							],
							"momentum": 0.8999999761581421,
							"epsilon": 0.000009999999747378752,
							"center": true,
							"scale": true,
							"beta_initializer": {
								"class_name": "Zeros",
								"config": {}
							},
							"gamma_initializer": {
								"class_name": "Ones",
								"config": {}
							},
							"moving_mean_initializer": {
								"class_name": "Zeros",
								"config": {}
							},
							"moving_variance_initializer": {
								"class_name": "Ones",
								"config": {}
							},
							"beta_regularizer": null,
							"gamma_regularizer": null,
							"beta_constraint": null,
							"gamma_constraint": null
						},
						"name": "462",
						"inbound_nodes": [
							[
								[
									"461",
									0,
									0,
									{}
								]
							]
						]
					},
					{
						"class_name": "Activation",
						"config": {
							"name": "463",
							"trainable": true,
							"dtype": "float32",
							"activation": "relu"
						},
						"name": "463",
						"inbound_nodes": [
							[
								[
									"462",
									0,
									0,
									{}
								]
							]
						]
					},
					{
						"class_name": "ZeroPadding2D",
						"config": {
							"name": "464_pad",
							"trainable": true,
							"dtype": "float32",
							"padding": [
								[
									1,
									1
								],
								[
									1,
									1
								]
							],
							"data_format": "channels_first"
						},
						"name": "464_pad",
						"inbound_nodes": [
							[
								[
									"463",
									0,
									0,
									{}
								]
							]
						]
					},
					{
						"class_name": "Conv2D",
						"config": {
							"name": "464",
							"trainable": true,
							"dtype": "float32",
							"filters": 512,
							"kernel_size": [
								3,
								3
							],
							"strides": [
								2,
								2
							],
							"padding": "valid",
							"data_format": "channels_first",
							"dilation_rate": [
								1,
								1
							],
							"activation": "linear",
							"use_bias": false,
							"kernel_initializer": {
								"class_name": "Zeros",
								"config": {}
							},
							"bias_initializer": {
								"class_name": "Zeros",
								"config": {}
							},
							"kernel_regularizer": null,
							"bias_regularizer": null,
							"activity_regularizer": null,
							"kernel_constraint": null,
							"bias_constraint": null
						},
						"name": "464",
						"inbound_nodes": [
							[
								[
									"464_pad",
									0,
									0,
									{}
								]
							]
						]
					},
					{
						"class_name": "BatchNormalization",
						"config": {
							"name": "465",
							"trainable": true,
							"dtype": "float32",
							"axis": [
								1
							],
							"momentum": 0.8999999761581421,
							"epsilon": 0.000009999999747378752,
							"center": true,
							"scale": true,
							"beta_initializer": {
								"class_name": "Zeros",
								"config": {}
							},
							"gamma_initializer": {
								"class_name": "Ones",
								"config": {}
							},
							"moving_mean_initializer": {
								"class_name": "Zeros",
								"config": {}
							},
							"moving_variance_initializer": {
								"class_name": "Ones",
								"config": {}
							},
							"beta_regularizer": null,
							"gamma_regularizer": null,
							"beta_constraint": null,
							"gamma_constraint": null
						},
						"name": "465",
						"inbound_nodes": [
							[
								[
									"464",
									0,
									0,
									{}
								]
							]
						]
					},
					{
						"class_name": "Activation",
						"config": {
							"name": "466",
							"trainable": true,
							"dtype": "float32",
							"activation": "relu"
						},
						"name": "466",
						"inbound_nodes": [
							[
								[
									"465",
									0,
									0,
									{}
								]
							]
						]
					},
					{
						"class_name": "Conv2D",
						"config": {
							"name": "467",
							"trainable": true,
							"dtype": "float32",
							"filters": 2048,
							"kernel_size": [
								1,
								1
							],
							"strides": [
								1,
								1
							],
							"padding": "valid",
							"data_format": "channels_first",
							"dilation_rate": [
								1,
								1
							],
							"activation": "linear",
							"use_bias": false,
							"kernel_initializer": {
								"class_name": "Zeros",
								"config": {}
							},
							"bias_initializer": {
								"class_name": "Zeros",
								"config": {}
							},
							"kernel_regularizer": null,
							"bias_regularizer": null,
							"activity_regularizer": null,
							"kernel_constraint": null,
							"bias_constraint": null
						},
						"name": "467",
						"inbound_nodes": [
							[
								[
									"466",
									0,
									0,
									{}
								]
							]
						]
					},
					{
						"class_name": "Conv2D",
						"config": {
							"name": "469",
							"trainable": true,
							"dtype": "float32",
							"filters": 2048,
							"kernel_size": [
								1,
								1
							],
							"strides": [
								2,
								2
							],
							"padding": "valid",
							"data_format": "channels_first",
							"dilation_rate": [
								1,
								1
							],
							"activation": "linear",
							"use_bias": false,
							"kernel_initializer": {
								"class_name": "Zeros",
								"config": {}
							},
							"bias_initializer": {
								"class_name": "Zeros",
								"config": {}
							},
							"kernel_regularizer": null,
							"bias_regularizer": null,
							"activity_regularizer": null,
							"kernel_constraint": null,
							"bias_constraint": null
						},
						"name": "469",
						"inbound_nodes": [
							[
								[
									"460",
									0,
									0,
									{}
								]
							]
						]
					},
					{
						"class_name": "BatchNormalization",
						"config": {
							"name": "468",
							"trainable": true,
							"dtype": "float32",
							"axis": [
								1
							],
							"momentum": 0.8999999761581421,
							"epsilon": 0.000009999999747378752,
							"center": true,
							"scale": true,
							"beta_initializer": {
								"class_name": "Zeros",
								"config": {}
							},
							"gamma_initializer": {
								"class_name": "Ones",
								"config": {}
							},
							"moving_mean_initializer": {
								"class_name": "Zeros",
								"config": {}
							},
							"moving_variance_initializer": {
								"class_name": "Ones",
								"config": {}
							},
							"beta_regularizer": null,
							"gamma_regularizer": null,
							"beta_constraint": null,
							"gamma_constraint": null
						},
						"name": "468",
						"inbound_nodes": [
							[
								[
									"467",
									0,
									0,
									{}
								]
							]
						]
					},
					{
						"class_name": "BatchNormalization",
						"config": {
							"name": "470",
							"trainable": true,
							"dtype": "float32",
							"axis": [
								1
							],
							"momentum": 0.8999999761581421,
							"epsilon": 0.000009999999747378752,
							"center": true,
							"scale": true,
							"beta_initializer": {
								"class_name": "Zeros",
								"config": {}
							},
							"gamma_initializer": {
								"class_name": "Ones",
								"config": {}
							},
							"moving_mean_initializer": {
								"class_name": "Zeros",
								"config": {}
							},
							"moving_variance_initializer": {
								"class_name": "Ones",
								"config": {}
							},
							"beta_regularizer": null,
							"gamma_regularizer": null,
							"beta_constraint": null,
							"gamma_constraint": null
						},
						"name": "470",
						"inbound_nodes": [
							[
								[
									"469",
									0,
									0,
									{}
								]
							]
						]
					},
					{
						"class_name": "Add",
						"config": {
							"name": "471",
							"trainable": true,
							"dtype": "float32"
						},
						"name": "471",
						"inbound_nodes": [
							[
								[
									"468",
									0,
									0,
									{}
								],
								[
									"470",
									0,
									0,
									{}
								]
							]
						]
					},
					{
						"class_name": "Activation",
						"config": {
							"name": "472",
							"trainable": true,
							"dtype": "float32",
							"activation": "relu"
						},
						"name": "472",
						"inbound_nodes": [
							[
								[
									"471",
									0,
									0,
									{}
								]
							]
						]
					},
					{
						"class_name": "Conv2D",
						"config": {
							"name": "473",
							"trainable": true,
							"dtype": "float32",
							"filters": 512,
							"kernel_size": [
								1,
								1
							],
							"strides": [
								1,
								1
							],
							"padding": "valid",
							"data_format": "channels_first",
							"dilation_rate": [
								1,
								1
							],
							"activation": "linear",
							"use_bias": false,
							"kernel_initializer": {
								"class_name": "Zeros",
								"config": {}
							},
							"bias_initializer": {
								"class_name": "Zeros",
								"config": {}
							},
							"kernel_regularizer": null,
							"bias_regularizer": null,
							"activity_regularizer": null,
							"kernel_constraint": null,
							"bias_constraint": null
						},
						"name": "473",
						"inbound_nodes": [
							[
								[
									"472",
									0,
									0,
									{}
								]
							]
						]
					},
					{
						"class_name": "BatchNormalization",
						"config": {
							"name": "474",
							"trainable": true,
							"dtype": "float32",
							"axis": [
								1
							],
							"momentum": 0.8999999761581421,
							"epsilon": 0.000009999999747378752,
							"center": true,
							"scale": true,
							"beta_initializer": {
								"class_name": "Zeros",
								"config": {}
							},
							"gamma_initializer": {
								"class_name": "Ones",
								"config": {}
							},
							"moving_mean_initializer": {
								"class_name": "Zeros",
								"config": {}
							},
							"moving_variance_initializer": {
								"class_name": "Ones",
								"config": {}
							},
							"beta_regularizer": null,
							"gamma_regularizer": null,
							"beta_constraint": null,
							"gamma_constraint": null
						},
						"name": "474",
						"inbound_nodes": [
							[
								[
									"473",
									0,
									0,
									{}
								]
							]
						]
					},
					{
						"class_name": "Activation",
						"config": {
							"name": "475",
							"trainable": true,
							"dtype": "float32",
							"activation": "relu"
						},
						"name": "475",
						"inbound_nodes": [
							[
								[
									"474",
									0,
									0,
									{}
								]
							]
						]
					},
					{
						"class_name": "ZeroPadding2D",
						"config": {
							"name": "476_pad",
							"trainable": true,
							"dtype": "float32",
							"padding": [
								[
									1,
									1
								],
								[
									1,
									1
								]
							],
							"data_format": "channels_first"
						},
						"name": "476_pad",
						"inbound_nodes": [
							[
								[
									"475",
									0,
									0,
									{}
								]
							]
						]
					},
					{
						"class_name": "Conv2D",
						"config": {
							"name": "476",
							"trainable": true,
							"dtype": "float32",
							"filters": 512,
							"kernel_size": [
								3,
								3
							],
							"strides": [
								1,
								1
							],
							"padding": "valid",
							"data_format": "channels_first",
							"dilation_rate": [
								1,
								1
							],
							"activation": "linear",
							"use_bias": false,
							"kernel_initializer": {
								"class_name": "Zeros",
								"config": {}
							},
							"bias_initializer": {
								"class_name": "Zeros",
								"config": {}
							},
							"kernel_regularizer": null,
							"bias_regularizer": null,
							"activity_regularizer": null,
							"kernel_constraint": null,
							"bias_constraint": null
						},
						"name": "476",
						"inbound_nodes": [
							[
								[
									"476_pad",
									0,
									0,
									{}
								]
							]
						]
					},
					{
						"class_name": "BatchNormalization",
						"config": {
							"name": "477",
							"trainable": true,
							"dtype": "float32",
							"axis": [
								1
							],
							"momentum": 0.8999999761581421,
							"epsilon": 0.000009999999747378752,
							"center": true,
							"scale": true,
							"beta_initializer": {
								"class_name": "Zeros",
								"config": {}
							},
							"gamma_initializer": {
								"class_name": "Ones",
								"config": {}
							},
							"moving_mean_initializer": {
								"class_name": "Zeros",
								"config": {}
							},
							"moving_variance_initializer": {
								"class_name": "Ones",
								"config": {}
							},
							"beta_regularizer": null,
							"gamma_regularizer": null,
							"beta_constraint": null,
							"gamma_constraint": null
						},
						"name": "477",
						"inbound_nodes": [
							[
								[
									"476",
									0,
									0,
									{}
								]
							]
						]
					},
					{
						"class_name": "Activation",
						"config": {
							"name": "478",
							"trainable": true,
							"dtype": "float32",
							"activation": "relu"
						},
						"name": "478",
						"inbound_nodes": [
							[
								[
									"477",
									0,
									0,
									{}
								]
							]
						]
					},
					{
						"class_name": "Conv2D",
						"config": {
							"name": "479",
							"trainable": true,
							"dtype": "float32",
							"filters": 2048,
							"kernel_size": [
								1,
								1
							],
							"strides": [
								1,
								1
							],
							"padding": "valid",
							"data_format": "channels_first",
							"dilation_rate": [
								1,
								1
							],
							"activation": "linear",
							"use_bias": false,
							"kernel_initializer": {
								"class_name": "Zeros",
								"config": {}
							},
							"bias_initializer": {
								"class_name": "Zeros",
								"config": {}
							},
							"kernel_regularizer": null,
							"bias_regularizer": null,
							"activity_regularizer": null,
							"kernel_constraint": null,
							"bias_constraint": null
						},
						"name": "479",
						"inbound_nodes": [
							[
								[
									"478",
									0,
									0,
									{}
								]
							]
						]
					},
					{
						"class_name": "BatchNormalization",
						"config": {
							"name": "480",
							"trainable": true,
							"dtype": "float32",
							"axis": [
								1
							],
							"momentum": 0.8999999761581421,
							"epsilon": 0.000009999999747378752,
							"center": true,
							"scale": true,
							"beta_initializer": {
								"class_name": "Zeros",
								"config": {}
							},
							"gamma_initializer": {
								"class_name": "Ones",
								"config": {}
							},
							"moving_mean_initializer": {
								"class_name": "Zeros",
								"config": {}
							},
							"moving_variance_initializer": {
								"class_name": "Ones",
								"config": {}
							},
							"beta_regularizer": null,
							"gamma_regularizer": null,
							"beta_constraint": null,
							"gamma_constraint": null
						},
						"name": "480",
						"inbound_nodes": [
							[
								[
									"479",
									0,
									0,
									{}
								]
							]
						]
					},
					{
						"class_name": "Add",
						"config": {
							"name": "481",
							"trainable": true,
							"dtype": "float32"
						},
						"name": "481",
						"inbound_nodes": [
							[
								[
									"480",
									0,
									0,
									{}
								],
								[
									"472",
									0,
									0,
									{}
								]
							]
						]
					},
					{
						"class_name": "Activation",
						"config": {
							"name": "482",
							"trainable": true,
							"dtype": "float32",
							"activation": "relu"
						},
						"name": "482",
						"inbound_nodes": [
							[
								[
									"481",
									0,
									0,
									{}
								]
							]
						]
					},
					{
						"class_name": "Conv2D",
						"config": {
							"name": "483",
							"trainable": true,
							"dtype": "float32",
							"filters": 512,
							"kernel_size": [
								1,
								1
							],
							"strides": [
								1,
								1
							],
							"padding": "valid",
							"data_format": "channels_first",
							"dilation_rate": [
								1,
								1
							],
							"activation": "linear",
							"use_bias": false,
							"kernel_initializer": {
								"class_name": "Zeros",
								"config": {}
							},
							"bias_initializer": {
								"class_name": "Zeros",
								"config": {}
							},
							"kernel_regularizer": null,
							"bias_regularizer": null,
							"activity_regularizer": null,
							"kernel_constraint": null,
							"bias_constraint": null
						},
						"name": "483",
						"inbound_nodes": [
							[
								[
									"482",
									0,
									0,
									{}
								]
							]
						]
					},
					{
						"class_name": "BatchNormalization",
						"config": {
							"name": "484",
							"trainable": true,
							"dtype": "float32",
							"axis": [
								1
							],
							"momentum": 0.8999999761581421,
							"epsilon": 0.000009999999747378752,
							"center": true,
							"scale": true,
							"beta_initializer": {
								"class_name": "Zeros",
								"config": {}
							},
							"gamma_initializer": {
								"class_name": "Ones",
								"config": {}
							},
							"moving_mean_initializer": {
								"class_name": "Zeros",
								"config": {}
							},
							"moving_variance_initializer": {
								"class_name": "Ones",
								"config": {}
							},
							"beta_regularizer": null,
							"gamma_regularizer": null,
							"beta_constraint": null,
							"gamma_constraint": null
						},
						"name": "484",
						"inbound_nodes": [
							[
								[
									"483",
									0,
									0,
									{}
								]
							]
						]
					},
					{
						"class_name": "Activation",
						"config": {
							"name": "485",
							"trainable": true,
							"dtype": "float32",
							"activation": "relu"
						},
						"name": "485",
						"inbound_nodes": [
							[
								[
									"484",
									0,
									0,
									{}
								]
							]
						]
					},
					{
						"class_name": "ZeroPadding2D",
						"config": {
							"name": "486_pad",
							"trainable": true,
							"dtype": "float32",
							"padding": [
								[
									1,
									1
								],
								[
									1,
									1
								]
							],
							"data_format": "channels_first"
						},
						"name": "486_pad",
						"inbound_nodes": [
							[
								[
									"485",
									0,
									0,
									{}
								]
							]
						]
					},
					{
						"class_name": "Conv2D",
						"config": {
							"name": "486",
							"trainable": true,
							"dtype": "float32",
							"filters": 512,
							"kernel_size": [
								3,
								3
							],
							"strides": [
								1,
								1
							],
							"padding": "valid",
							"data_format": "channels_first",
							"dilation_rate": [
								1,
								1
							],
							"activation": "linear",
							"use_bias": false,
							"kernel_initializer": {
								"class_name": "Zeros",
								"config": {}
							},
							"bias_initializer": {
								"class_name": "Zeros",
								"config": {}
							},
							"kernel_regularizer": null,
							"bias_regularizer": null,
							"activity_regularizer": null,
							"kernel_constraint": null,
							"bias_constraint": null
						},
						"name": "486",
						"inbound_nodes": [
							[
								[
									"486_pad",
									0,
									0,
									{}
								]
							]
						]
					},
					{
						"class_name": "BatchNormalization",
						"config": {
							"name": "487",
							"trainable": true,
							"dtype": "float32",
							"axis": [
								1
							],
							"momentum": 0.8999999761581421,
							"epsilon": 0.000009999999747378752,
							"center": true,
							"scale": true,
							"beta_initializer": {
								"class_name": "Zeros",
								"config": {}
							},
							"gamma_initializer": {
								"class_name": "Ones",
								"config": {}
							},
							"moving_mean_initializer": {
								"class_name": "Zeros",
								"config": {}
							},
							"moving_variance_initializer": {
								"class_name": "Ones",
								"config": {}
							},
							"beta_regularizer": null,
							"gamma_regularizer": null,
							"beta_constraint": null,
							"gamma_constraint": null
						},
						"name": "487",
						"inbound_nodes": [
							[
								[
									"486",
									0,
									0,
									{}
								]
							]
						]
					},
					{
						"class_name": "Activation",
						"config": {
							"name": "488",
							"trainable": true,
							"dtype": "float32",
							"activation": "relu"
						},
						"name": "488",
						"inbound_nodes": [
							[
								[
									"487",
									0,
									0,
									{}
								]
							]
						]
					},
					{
						"class_name": "Conv2D",
						"config": {
							"name": "489",
							"trainable": true,
							"dtype": "float32",
							"filters": 2048,
							"kernel_size": [
								1,
								1
							],
							"strides": [
								1,
								1
							],
							"padding": "valid",
							"data_format": "channels_first",
							"dilation_rate": [
								1,
								1
							],
							"activation": "linear",
							"use_bias": false,
							"kernel_initializer": {
								"class_name": "Zeros",
								"config": {}
							},
							"bias_initializer": {
								"class_name": "Zeros",
								"config": {}
							},
							"kernel_regularizer": null,
							"bias_regularizer": null,
							"activity_regularizer": null,
							"kernel_constraint": null,
							"bias_constraint": null
						},
						"name": "489",
						"inbound_nodes": [
							[
								[
									"488",
									0,
									0,
									{}
								]
							]
						]
					},
					{
						"class_name": "BatchNormalization",
						"config": {
							"name": "490",
							"trainable": true,
							"dtype": "float32",
							"axis": [
								1
							],
							"momentum": 0.8999999761581421,
							"epsilon": 0.000009999999747378752,
							"center": true,
							"scale": true,
							"beta_initializer": {
								"class_name": "Zeros",
								"config": {}
							},
							"gamma_initializer": {
								"class_name": "Ones",
								"config": {}
							},
							"moving_mean_initializer": {
								"class_name": "Zeros",
								"config": {}
							},
							"moving_variance_initializer": {
								"class_name": "Ones",
								"config": {}
							},
							"beta_regularizer": null,
							"gamma_regularizer": null,
							"beta_constraint": null,
							"gamma_constraint": null
						},
						"name": "490",
						"inbound_nodes": [
							[
								[
									"489",
									0,
									0,
									{}
								]
							]
						]
					},
					{
						"class_name": "Add",
						"config": {
							"name": "491",
							"trainable": true,
							"dtype": "float32"
						},
						"name": "491",
						"inbound_nodes": [
							[
								[
									"490",
									0,
									0,
									{}
								],
								[
									"482",
									0,
									0,
									{}
								]
							]
						]
					},
					{
						"class_name": "Activation",
						"config": {
							"name": "492",
							"trainable": true,
							"dtype": "float32",
							"activation": "relu"
						},
						"name": "492",
						"inbound_nodes": [
							[
								[
									"491",
									0,
									0,
									{}
								]
							]
						]
					},
					{
						"class_name": "GlobalAveragePooling2D",
						"config": {
							"name": "493",
							"trainable": true,
							"dtype": "float32",
							"data_format": "channels_first"
						},
						"name": "493",
						"inbound_nodes": [
							[
								[
									"492",
									0,
									0,
									{}
								]
							]
						]
					},
					{
						"class_name": "Reshape",
						"config": {
							"name": "494",
							"trainable": true,
							"dtype": "float32",
							"target_shape": [
								-1
							]
						},
						"name": "494",
						"inbound_nodes": [
							[
								[
									"493",
									0,
									0,
									{}
								]
							]
						]
					},
					{
						"class_name": "Reshape",
						"config": {
							"name": "output_0_reshape",
							"trainable": true,
							"dtype": "float32",
							"target_shape": [
								2048
							]
						},
						"name": "output_0_reshape",
						"inbound_nodes": [
							[
								[
									"494",
									0,
									0,
									{}
								]
							]
						]
					},
					{
						"class_name": "Dense",
						"config": {
							"name": "output_0",
							"trainable": true,
							"dtype": "float32",
							"units": 683,
							"activation": "softmax",
							"use_bias": true,
							"kernel_initializer": {
								"class_name": "Zeros",
								"config": {}
							},
							"bias_initializer": {
								"class_name": "Zeros",
								"config": {}
							},
							"kernel_regularizer": null,
							"bias_regularizer": null,
							"activity_regularizer": null,
							"kernel_constraint": null,
							"bias_constraint": null
						},
						"name": "output_0",
						"inbound_nodes": [
							[
								[
									"output_0_reshape",
									0,
									0,
									{}
								]
							]
						]
					}
				],
				"input_layers": [
					[
						"input_0",
						0,
						0
					]
				],
				"output_layers": [
					[
						"output_0",
						0,
						0
					]
				]
			}
		}
	},
	"weightsManifest": [
		{
			"paths": [
				"TouvronEtAl2019ResNet50-0.pbf",
				"TouvronEtAl2019ResNet50-1.pbf",
				"TouvronEtAl2019ResNet50-2.pbf",
				"TouvronEtAl2019ResNet50-3.pbf",
				"TouvronEtAl2019ResNet50-4.pbf",
				"TouvronEtAl2019ResNet50-5.pbf"
			],
			"weights": [
				{
					"name": "321/kernel",
					"shape": [
						7,
						7,
						3,
						64
					],
					"dtype": "float32",
					"quantization": {
						"min": -0.9199479430329567,
						"scale": 0.006618330525416954,
						"dtype": "uint8"
					}
				},
				{
					"name": "322/gamma",
					"shape": [
						64
					],
					"dtype": "float32",
					"quantization": {
						"min": 2.7564623218505335e-13,
						"scale": 0.002404039981317374,
						"dtype": "uint8"
					}
				},
				{
					"name": "322/beta",
					"shape": [
						64
					],
					"dtype": "float32",
					"quantization": {
						"min": -0.3310463510307611,
						"scale": 0.005093020785088632,
						"dtype": "uint8"
					}
				},
				{
					"name": "322/moving_mean",
					"shape": [
						64
					],
					"dtype": "float32",
					"quantization": {
						"min": -5.208987480051377,
						"scale": 0.03195697840522317,
						"dtype": "uint8"
					}
				},
				{
					"name": "322/moving_variance",
					"shape": [
						64
					],
					"dtype": "float32",
					"quantization": {
						"min": 1.1116023040941247e-21,
						"scale": 0.11300858890309054,
						"dtype": "uint8"
					}
				},
				{
					"name": "325/kernel",
					"shape": [
						1,
						1,
						64,
						64
					],
					"dtype": "float32",
					"quantization": {
						"min": -0.574069704728968,
						"scale": 0.003417081575767667,
						"dtype": "uint8"
					}
				},
				{
					"name": "326/gamma",
					"shape": [
						64
					],
					"dtype": "float32",
					"quantization": {
						"min": 0.04934002831578255,
						"scale": 0.0010692454290156272,
						"dtype": "uint8"
					}
				},
				{
					"name": "326/beta",
					"shape": [
						64
					],
					"dtype": "float32",
					"quantization": {
						"min": -0.1560421298531925,
						"scale": 0.003250877705274844,
						"dtype": "uint8"
					}
				},
				{
					"name": "326/moving_mean",
					"shape": [
						64
					],
					"dtype": "float32",
					"quantization": {
						"min": -0.6337040185928344,
						"scale": 0.004196715354919433,
						"dtype": "uint8"
					}
				},
				{
					"name": "326/moving_variance",
					"shape": [
						64
					],
					"dtype": "float32",
					"quantization": {
						"min": 0.004466133192181587,
						"scale": 0.0015543769898952223,
						"dtype": "uint8"
					}
				},
				{
					"name": "328/kernel",
					"shape": [
						3,
						3,
						64,
						64
					],
					"dtype": "float32",
					"quantization": {
						"min": -0.30740177163890764,
						"scale": 0.0026730588838165883,
						"dtype": "uint8"
					}
				},
				{
					"name": "329/gamma",
					"shape": [
						64
					],
					"dtype": "float32",
					"quantization": {
						"min": 2.1636239674882596e-11,
						"scale": 0.0011631229343687796,
						"dtype": "uint8"
					}
				},
				{
					"name": "329/beta",
					"shape": [
						64
					],
					"dtype": "float32",
					"quantization": {
						"min": -0.20209150255895128,
						"scale": 0.003259540363854053,
						"dtype": "uint8"
					}
				},
				{
					"name": "329/moving_mean",
					"shape": [
						64
					],
					"dtype": "float32",
					"quantization": {
						"min": -0.422672417233972,
						"scale": 0.0041848754181581386,
						"dtype": "uint8"
					}
				},
				{
					"name": "329/moving_variance",
					"shape": [
						64
					],
					"dtype": "float32",
					"quantization": {
						"min": 5.0638272461230924e-21,
						"scale": 0.0007872098216823503,
						"dtype": "uint8"
					}
				},
				{
					"name": "331/kernel",
					"shape": [
						1,
						1,
						64,
						256
					],
					"dtype": "float32",
					"quantization": {
						"min": -0.3420897380978453,
						"scale": 0.00302734281502518,
						"dtype": "uint8"
					}
				},
				{
					"name": "332/gamma",
					"shape": [
						256
					],
					"dtype": "float32",
					"quantization": {
						"min": -0.1159883491841017,
						"scale": 0.0021884594185679566,
						"dtype": "uint8"
					}
				},
				{
					"name": "332/beta",
					"shape": [
						256
					],
					"dtype": "float32",
					"quantization": {
						"min": -0.29471993726842544,
						"scale": 0.002135651719336416,
						"dtype": "uint8"
					}
				},
				{
					"name": "332/moving_mean",
					"shape": [
						256
					],
					"dtype": "float32",
					"quantization": {
						"min": -0.3455655565448836,
						"scale": 0.002699730910506903,
						"dtype": "uint8"
					}
				},
				{
					"name": "332/moving_variance",
					"shape": [
						256
					],
					"dtype": "float32",
					"quantization": {
						"min": 7.116095440357065e-26,
						"scale": 0.00015949010848999025,
						"dtype": "uint8"
					}
				},
				{
					"name": "333/kernel",
					"shape": [
						1,
						1,
						64,
						256
					],
					"dtype": "float32",
					"quantization": {
						"min": -0.7298595933353199,
						"scale": 0.005792536455042222,
						"dtype": "uint8"
					}
				},
				{
					"name": "334/gamma",
					"shape": [
						256
					],
					"dtype": "float32",
					"quantization": {
						"min": -0.012282250712023064,
						"scale": 0.002047041785337177,
						"dtype": "uint8"
					}
				},
				{
					"name": "334/beta",
					"shape": [
						256
					],
					"dtype": "float32",
					"quantization": {
						"min": -0.2947198888834785,
						"scale": 0.0021356513687208587,
						"dtype": "uint8"
					}
				},
				{
					"name": "334/moving_mean",
					"shape": [
						256
					],
					"dtype": "float32",
					"quantization": {
						"min": -0.9236987160701379,
						"scale": 0.00982658208585253,
						"dtype": "uint8"
					}
				},
				{
					"name": "334/moving_variance",
					"shape": [
						256
					],
					"dtype": "float32",
					"quantization": {
						"min": 4.267636424442192e-25,
						"scale": 0.0014108982740664014,
						"dtype": "uint8"
					}
				},
				{
					"name": "337/kernel",
					"shape": [
						1,
						1,
						256,
						64
					],
					"dtype": "float32",
					"quantization": {
						"min": -0.2936091572630639,
						"scale": 0.0023678157843795475,
						"dtype": "uint8"
					}
				},
				{
					"name": "338/gamma",
					"shape": [
						64
					],
					"dtype": "float32",
					"quantization": {
						"min": 3.84195333966858e-13,
						"scale": 0.001849527335632912,
						"dtype": "uint8"
					}
				},
				{
					"name": "338/beta",
					"shape": [
						64
					],
					"dtype": "float32",
					"quantization": {
						"min": -0.42451657126931586,
						"scale": 0.003659625614390654,
						"dtype": "uint8"
					}
				},
				{
					"name": "338/moving_mean",
					"shape": [
						64
					],
					"dtype": "float32",
					"quantization": {
						"min": -0.40750853419303895,
						"scale": 0.0026634544718499276,
						"dtype": "uint8"
					}
				},
				{
					"name": "338/moving_variance",
					"shape": [
						64
					],
					"dtype": "float32",
					"quantization": {
						"min": 1.095104104198795e-24,
						"scale": 0.00044145157524183684,
						"dtype": "uint8"
					}
				},
				{
					"name": "340/kernel",
					"shape": [
						3,
						3,
						64,
						64
					],
					"dtype": "float32",
					"quantization": {
						"min": -0.4630288685069365,
						"scale": 0.003066416347728056,
						"dtype": "uint8"
					}
				},
				{
					"name": "341/gamma",
					"shape": [
						64
					],
					"dtype": "float32",
					"quantization": {
						"min": 4.2806053812682876e-8,
						"scale": 0.0012878481738318624,
						"dtype": "uint8"
					}
				},
				{
					"name": "341/beta",
					"shape": [
						64
					],
					"dtype": "float32",
					"quantization": {
						"min": -0.26506754662476334,
						"scale": 0.002573471326454013,
						"dtype": "uint8"
					}
				},
				{
					"name": "341/moving_mean",
					"shape": [
						64
					],
					"dtype": "float32",
					"quantization": {
						"min": -0.30708751958959246,
						"scale": 0.0018499248168047737,
						"dtype": "uint8"
					}
				},
				{
					"name": "341/moving_variance",
					"shape": [
						64
					],
					"dtype": "float32",
					"quantization": {
						"min": 1.565059706147337e-15,
						"scale": 0.00012528617300238648,
						"dtype": "uint8"
					}
				},
				{
					"name": "343/kernel",
					"shape": [
						1,
						1,
						64,
						256
					],
					"dtype": "float32",
					"quantization": {
						"min": -0.32974721824421604,
						"scale": 0.002659251760034,
						"dtype": "uint8"
					}
				},
				{
					"name": "344/gamma",
					"shape": [
						256
					],
					"dtype": "float32",
					"quantization": {
						"min": -0.10458552054330414,
						"scale": 0.0017726359414119346,
						"dtype": "uint8"
					}
				},
				{
					"name": "344/beta",
					"shape": [
						256
					],
					"dtype": "float32",
					"quantization": {
						"min": -0.260119384877822,
						"scale": 0.0020164293401381548,
						"dtype": "uint8"
					}
				},
				{
					"name": "344/moving_mean",
					"shape": [
						256
					],
					"dtype": "float32",
					"quantization": {
						"min": -0.11503359774748485,
						"scale": 0.0009666688886343265,
						"dtype": "uint8"
					}
				},
				{
					"name": "344/moving_variance",
					"shape": [
						256
					],
					"dtype": "float32",
					"quantization": {
						"min": 1.834462508502991e-25,
						"scale": 0.00005290785840913361,
						"dtype": "uint8"
					}
				},
				{
					"name": "347/kernel",
					"shape": [
						1,
						1,
						256,
						64
					],
					"dtype": "float32",
					"quantization": {
						"min": -0.1919045704836939,
						"scale": 0.0019000452523138009,
						"dtype": "uint8"
					}
				},
				{
					"name": "348/gamma",
					"shape": [
						64
					],
					"dtype": "float32",
					"quantization": {
						"min": 0,
						"scale": 0.0009641000453222286,
						"dtype": "uint8"
					}
				},
				{
					"name": "348/beta",
					"shape": [
						64
					],
					"dtype": "float32",
					"quantization": {
						"min": -0.1816073716855517,
						"scale": 0.001973993170495127,
						"dtype": "uint8"
					}
				},
				{
					"name": "348/moving_mean",
					"shape": [
						64
					],
					"dtype": "float32",
					"quantization": {
						"min": -0.23763565362668504,
						"scale": 0.0017734004001991421,
						"dtype": "uint8"
					}
				},
				{
					"name": "348/moving_variance",
					"shape": [
						64
					],
					"dtype": "float32",
					"quantization": {
						"min": 6.911143830502406e-25,
						"scale": 0.00019809358260210823,
						"dtype": "uint8"
					}
				},
				{
					"name": "350/kernel",
					"shape": [
						3,
						3,
						64,
						64
					],
					"dtype": "float32",
					"quantization": {
						"min": -0.2550484408350552,
						"scale": 0.002008255439646104,
						"dtype": "uint8"
					}
				},
				{
					"name": "351/gamma",
					"shape": [
						64
					],
					"dtype": "float32",
					"quantization": {
						"min": 0.1142338216304779,
						"scale": 0.0007730743464301615,
						"dtype": "uint8"
					}
				},
				{
					"name": "351/beta",
					"shape": [
						64
					],
					"dtype": "float32",
					"quantization": {
						"min": -0.3081229609601638,
						"scale": 0.00280111782691058,
						"dtype": "uint8"
					}
				},
				{
					"name": "351/moving_mean",
					"shape": [
						64
					],
					"dtype": "float32",
					"quantization": {
						"min": -0.18489804250352523,
						"scale": 0.001946295184247634,
						"dtype": "uint8"
					}
				},
				{
					"name": "351/moving_variance",
					"shape": [
						64
					],
					"dtype": "float32",
					"quantization": {
						"min": 0.004190485924482346,
						"scale": 0.00009892406124694674,
						"dtype": "uint8"
					}
				},
				{
					"name": "353/kernel",
					"shape": [
						1,
						1,
						64,
						256
					],
					"dtype": "float32",
					"quantization": {
						"min": -0.20064430026447075,
						"scale": 0.0019865772303412944,
						"dtype": "uint8"
					}
				},
				{
					"name": "354/gamma",
					"shape": [
						256
					],
					"dtype": "float32",
					"quantization": {
						"min": -0.15390589190464393,
						"scale": 0.0019238236488080492,
						"dtype": "uint8"
					}
				},
				{
					"name": "354/beta",
					"shape": [
						256
					],
					"dtype": "float32",
					"quantization": {
						"min": -0.16792325938449187,
						"scale": 0.0014730110472323849,
						"dtype": "uint8"
					}
				},
				{
					"name": "354/moving_mean",
					"shape": [
						256
					],
					"dtype": "float32",
					"quantization": {
						"min": -0.167427378542283,
						"scale": 0.00111618252361522,
						"dtype": "uint8"
					}
				},
				{
					"name": "354/moving_variance",
					"shape": [
						256
					],
					"dtype": "float32",
					"quantization": {
						"min": 0.00003235166514059529,
						"scale": 0.000019590283302343726,
						"dtype": "uint8"
					}
				},
				{
					"name": "357/kernel",
					"shape": [
						1,
						1,
						256,
						128
					],
					"dtype": "float32",
					"quantization": {
						"min": -0.27616086497026326,
						"scale": 0.002191752896589391,
						"dtype": "uint8"
					}
				},
				{
					"name": "358/gamma",
					"shape": [
						128
					],
					"dtype": "float32",
					"quantization": {
						"min": 0.12576094269752502,
						"scale": 0.0007405002911885579,
						"dtype": "uint8"
					}
				},
				{
					"name": "358/beta",
					"shape": [
						128
					],
					"dtype": "float32",
					"quantization": {
						"min": -0.2997854169677286,
						"scale": 0.0018854428740108715,
						"dtype": "uint8"
					}
				},
				{
					"name": "358/moving_mean",
					"shape": [
						128
					],
					"dtype": "float32",
					"quantization": {
						"min": -0.4430367171764374,
						"scale": 0.0028956648181466494,
						"dtype": "uint8"
					}
				},
				{
					"name": "358/moving_variance",
					"shape": [
						128
					],
					"dtype": "float32",
					"quantization": {
						"min": 0.009710259735584259,
						"scale": 0.0003811468680699666,
						"dtype": "uint8"
					}
				},
				{
					"name": "360/kernel",
					"shape": [
						3,
						3,
						128,
						128
					],
					"dtype": "float32",
					"quantization": {
						"min": -0.20501709942724192,
						"scale": 0.0014437823903326896,
						"dtype": "uint8"
					}
				},
				{
					"name": "361/gamma",
					"shape": [
						128
					],
					"dtype": "float32",
					"quantization": {
						"min": 0.10834813863039017,
						"scale": 0.0012510754021943784,
						"dtype": "uint8"
					}
				},
				{
					"name": "361/beta",
					"shape": [
						128
					],
					"dtype": "float32",
					"quantization": {
						"min": -0.10843618196599625,
						"scale": 0.001506058082861059,
						"dtype": "uint8"
					}
				},
				{
					"name": "361/moving_mean",
					"shape": [
						128
					],
					"dtype": "float32",
					"quantization": {
						"min": -0.24080504155626486,
						"scale": 0.0017200360111161775,
						"dtype": "uint8"
					}
				},
				{
					"name": "361/moving_variance",
					"shape": [
						128
					],
					"dtype": "float32",
					"quantization": {
						"min": 0.007723393850028515,
						"scale": 0.00010169020251316182,
						"dtype": "uint8"
					}
				},
				{
					"name": "363/kernel",
					"shape": [
						1,
						1,
						128,
						512
					],
					"dtype": "float32",
					"quantization": {
						"min": -0.28746433351554124,
						"scale": 0.0023757382935168697,
						"dtype": "uint8"
					}
				},
				{
					"name": "364/gamma",
					"shape": [
						512
					],
					"dtype": "float32",
					"quantization": {
						"min": -0.06720290090523515,
						"scale": 0.00176849739224303,
						"dtype": "uint8"
					}
				},
				{
					"name": "364/beta",
					"shape": [
						512
					],
					"dtype": "float32",
					"quantization": {
						"min": -0.22582109617251975,
						"scale": 0.00164832916914248,
						"dtype": "uint8"
					}
				},
				{
					"name": "364/moving_mean",
					"shape": [
						512
					],
					"dtype": "float32",
					"quantization": {
						"min": -0.13230209841447718,
						"scale": 0.0012600199848997826,
						"dtype": "uint8"
					}
				},
				{
					"name": "364/moving_variance",
					"shape": [
						512
					],
					"dtype": "float32",
					"quantization": {
						"min": 1.3284368340115262e-25,
						"scale": 0.00003523615134112975,
						"dtype": "uint8"
					}
				},
				{
					"name": "365/kernel",
					"shape": [
						1,
						1,
						256,
						512
					],
					"dtype": "float32",
					"quantization": {
						"min": -0.4370003812453326,
						"scale": 0.0039017891182618982,
						"dtype": "uint8"
					}
				},
				{
					"name": "366/gamma",
					"shape": [
						512
					],
					"dtype": "float32",
					"quantization": {
						"min": -0.07213758598355687,
						"scale": 0.0017175615710370682,
						"dtype": "uint8"
					}
				},
				{
					"name": "366/beta",
					"shape": [
						512
					],
					"dtype": "float32",
					"quantization": {
						"min": -0.22582107215535407,
						"scale": 0.0016483289938347013,
						"dtype": "uint8"
					}
				},
				{
					"name": "366/moving_mean",
					"shape": [
						512
					],
					"dtype": "float32",
					"quantization": {
						"min": -0.7023758670862984,
						"scale": 0.004911719350253835,
						"dtype": "uint8"
					}
				},
				{
					"name": "366/moving_variance",
					"shape": [
						512
					],
					"dtype": "float32",
					"quantization": {
						"min": 1.4658998896584268e-24,
						"scale": 0.0005317026493596096,
						"dtype": "uint8"
					}
				},
				{
					"name": "369/kernel",
					"shape": [
						1,
						1,
						512,
						128
					],
					"dtype": "float32",
					"quantization": {
						"min": -0.2128406836706049,
						"scale": 0.0021942338522742775,
						"dtype": "uint8"
					}
				},
				{
					"name": "370/gamma",
					"shape": [
						128
					],
					"dtype": "float32",
					"quantization": {
						"min": 0.04076255485415459,
						"scale": 0.0008837673740059722,
						"dtype": "uint8"
					}
				},
				{
					"name": "370/beta",
					"shape": [
						128
					],
					"dtype": "float32",
					"quantization": {
						"min": -0.1968527417556912,
						"scale": 0.0022118285590527103,
						"dtype": "uint8"
					}
				},
				{
					"name": "370/moving_mean",
					"shape": [
						128
					],
					"dtype": "float32",
					"quantization": {
						"min": -0.1913207391313478,
						"scale": 0.002855533419870863,
						"dtype": "uint8"
					}
				},
				{
					"name": "370/moving_variance",
					"shape": [
						128
					],
					"dtype": "float32",
					"quantization": {
						"min": 0.005078676622360945,
						"scale": 0.0016379983858296684,
						"dtype": "uint8"
					}
				},
				{
					"name": "372/kernel",
					"shape": [
						3,
						3,
						128,
						128
					],
					"dtype": "float32",
					"quantization": {
						"min": -0.19466816888136024,
						"scale": 0.0023174782009685742,
						"dtype": "uint8"
					}
				},
				{
					"name": "373/gamma",
					"shape": [
						128
					],
					"dtype": "float32",
					"quantization": {
						"min": 0.06342121213674545,
						"scale": 0.0006894153999347312,
						"dtype": "uint8"
					}
				},
				{
					"name": "373/beta",
					"shape": [
						128
					],
					"dtype": "float32",
					"quantization": {
						"min": -0.19617890996091505,
						"scale": 0.001621313305462108,
						"dtype": "uint8"
					}
				},
				{
					"name": "373/moving_mean",
					"shape": [
						128
					],
					"dtype": "float32",
					"quantization": {
						"min": -0.802993439693077,
						"scale": 0.004364094780940636,
						"dtype": "uint8"
					}
				},
				{
					"name": "373/moving_variance",
					"shape": [
						128
					],
					"dtype": "float32",
					"quantization": {
						"min": 0.00225734431296587,
						"scale": 0.00019725724397336736,
						"dtype": "uint8"
					}
				},
				{
					"name": "375/kernel",
					"shape": [
						1,
						1,
						128,
						512
					],
					"dtype": "float32",
					"quantization": {
						"min": -0.23372137838718937,
						"scale": 0.0021247398035199034,
						"dtype": "uint8"
					}
				},
				{
					"name": "376/gamma",
					"shape": [
						512
					],
					"dtype": "float32",
					"quantization": {
						"min": -0.13654750059632695,
						"scale": 0.0018206333412843592,
						"dtype": "uint8"
					}
				},
				{
					"name": "376/beta",
					"shape": [
						512
					],
					"dtype": "float32",
					"quantization": {
						"min": -0.32137948274612427,
						"scale": 0.0018904675455654369,
						"dtype": "uint8"
					}
				},
				{
					"name": "376/moving_mean",
					"shape": [
						512
					],
					"dtype": "float32",
					"quantization": {
						"min": -0.17694774194090976,
						"scale": 0.0009776118339276782,
						"dtype": "uint8"
					}
				},
				{
					"name": "376/moving_variance",
					"shape": [
						512
					],
					"dtype": "float32",
					"quantization": {
						"min": 9.607401872256684e-25,
						"scale": 0.00003773020397798688,
						"dtype": "uint8"
					}
				},
				{
					"name": "379/kernel",
					"shape": [
						1,
						1,
						512,
						128
					],
					"dtype": "float32",
					"quantization": {
						"min": -0.2552860180536906,
						"scale": 0.0019637386004130045,
						"dtype": "uint8"
					}
				},
				{
					"name": "380/gamma",
					"shape": [
						128
					],
					"dtype": "float32",
					"quantization": {
						"min": 0.08531147986650467,
						"scale": 0.0007517551382382711,
						"dtype": "uint8"
					}
				},
				{
					"name": "380/beta",
					"shape": [
						128
					],
					"dtype": "float32",
					"quantization": {
						"min": -0.19560410730979022,
						"scale": 0.0015524135500777,
						"dtype": "uint8"
					}
				},
				{
					"name": "380/moving_mean",
					"shape": [
						128
					],
					"dtype": "float32",
					"quantization": {
						"min": -0.20175276994705202,
						"scale": 0.0019779683328142355,
						"dtype": "uint8"
					}
				},
				{
					"name": "380/moving_variance",
					"shape": [
						128
					],
					"dtype": "float32",
					"quantization": {
						"min": 0.004526225849986076,
						"scale": 0.00014600466717691984,
						"dtype": "uint8"
					}
				},
				{
					"name": "382/kernel",
					"shape": [
						3,
						3,
						128,
						128
					],
					"dtype": "float32",
					"quantization": {
						"min": -0.3140330630190232,
						"scale": 0.0023261708371779496,
						"dtype": "uint8"
					}
				},
				{
					"name": "383/gamma",
					"shape": [
						128
					],
					"dtype": "float32",
					"quantization": {
						"min": 0.09865840524435043,
						"scale": 0.0008594805411264008,
						"dtype": "uint8"
					}
				},
				{
					"name": "383/beta",
					"shape": [
						128
					],
					"dtype": "float32",
					"quantization": {
						"min": -0.2599211796826007,
						"scale": 0.00226018417115305,
						"dtype": "uint8"
					}
				},
				{
					"name": "383/moving_mean",
					"shape": [
						128
					],
					"dtype": "float32",
					"quantization": {
						"min": -0.48314017010670085,
						"scale": 0.0025698945218441535,
						"dtype": "uint8"
					}
				},
				{
					"name": "383/moving_variance",
					"shape": [
						128
					],
					"dtype": "float32",
					"quantization": {
						"min": 0.004481528420001268,
						"scale": 0.00012245578326138795,
						"dtype": "uint8"
					}
				},
				{
					"name": "385/kernel",
					"shape": [
						1,
						1,
						128,
						512
					],
					"dtype": "float32",
					"quantization": {
						"min": -0.2742117812820509,
						"scale": 0.0024266529316995657,
						"dtype": "uint8"
					}
				},
				{
					"name": "386/gamma",
					"shape": [
						512
					],
					"dtype": "float32",
					"quantization": {
						"min": -0.1217854982789825,
						"scale": 0.0015816298477789935,
						"dtype": "uint8"
					}
				},
				{
					"name": "386/beta",
					"shape": [
						512
					],
					"dtype": "float32",
					"quantization": {
						"min": -0.3038851822123808,
						"scale": 0.0019479819372588514,
						"dtype": "uint8"
					}
				},
				{
					"name": "386/moving_mean",
					"shape": [
						512
					],
					"dtype": "float32",
					"quantization": {
						"min": -0.12219485146742241,
						"scale": 0.0010098748055158877,
						"dtype": "uint8"
					}
				},
				{
					"name": "386/moving_variance",
					"shape": [
						512
					],
					"dtype": "float32",
					"quantization": {
						"min": 2.810792033197866e-19,
						"scale": 0.000021689600658183004,
						"dtype": "uint8"
					}
				},
				{
					"name": "389/kernel",
					"shape": [
						1,
						1,
						512,
						128
					],
					"dtype": "float32",
					"quantization": {
						"min": -0.2169646292340522,
						"scale": 0.0017783986002791162,
						"dtype": "uint8"
					}
				},
				{
					"name": "390/gamma",
					"shape": [
						128
					],
					"dtype": "float32",
					"quantization": {
						"min": 0.11135151982307434,
						"scale": 0.0003852730872584324,
						"dtype": "uint8"
					}
				},
				{
					"name": "390/beta",
					"shape": [
						128
					],
					"dtype": "float32",
					"quantization": {
						"min": -0.26863395606770235,
						"scale": 0.001599011643260133,
						"dtype": "uint8"
					}
				},
				{
					"name": "390/moving_mean",
					"shape": [
						128
					],
					"dtype": "float32",
					"quantization": {
						"min": -0.2528745416332694,
						"scale": 0.0015609539606991937,
						"dtype": "uint8"
					}
				},
				{
					"name": "390/moving_variance",
					"shape": [
						128
					],
					"dtype": "float32",
					"quantization": {
						"min": 0.007343448232859373,
						"scale": 0.00009525964840077886,
						"dtype": "uint8"
					}
				},
				{
					"name": "392/kernel",
					"shape": [
						3,
						3,
						128,
						128
					],
					"dtype": "float32",
					"quantization": {
						"min": -0.17318230914134605,
						"scale": 0.0014312587532342648,
						"dtype": "uint8"
					}
				},
				{
					"name": "393/gamma",
					"shape": [
						128
					],
					"dtype": "float32",
					"quantization": {
						"min": 0.12366965413093567,
						"scale": 0.0008759408604864981,
						"dtype": "uint8"
					}
				},
				{
					"name": "393/beta",
					"shape": [
						128
					],
					"dtype": "float32",
					"quantization": {
						"min": -0.21800262928009034,
						"scale": 0.0019123037656148276,
						"dtype": "uint8"
					}
				},
				{
					"name": "393/moving_mean",
					"shape": [
						128
					],
					"dtype": "float32",
					"quantization": {
						"min": -0.26683490650326597,
						"scale": 0.00266834906503266,
						"dtype": "uint8"
					}
				},
				{
					"name": "393/moving_variance",
					"shape": [
						128
					],
					"dtype": "float32",
					"quantization": {
						"min": 0.003991070203483105,
						"scale": 0.00009630135826620401,
						"dtype": "uint8"
					}
				},
				{
					"name": "395/kernel",
					"shape": [
						1,
						1,
						128,
						512
					],
					"dtype": "float32",
					"quantization": {
						"min": -0.24288535381064694,
						"scale": 0.002188156340636459,
						"dtype": "uint8"
					}
				},
				{
					"name": "396/gamma",
					"shape": [
						512
					],
					"dtype": "float32",
					"quantization": {
						"min": -0.11747198700904847,
						"scale": 0.001545684039592743,
						"dtype": "uint8"
					}
				},
				{
					"name": "396/beta",
					"shape": [
						512
					],
					"dtype": "float32",
					"quantization": {
						"min": -0.24555943152483772,
						"scale": 0.0014792736838845646,
						"dtype": "uint8"
					}
				},
				{
					"name": "396/moving_mean",
					"shape": [
						512
					],
					"dtype": "float32",
					"quantization": {
						"min": -0.13597918655358107,
						"scale": 0.0007905766660091923,
						"dtype": "uint8"
					}
				},
				{
					"name": "396/moving_variance",
					"shape": [
						512
					],
					"dtype": "float32",
					"quantization": {
						"min": 0.00005023561243433505,
						"scale": 0.00001033345829722855,
						"dtype": "uint8"
					}
				},
				{
					"name": "399/kernel",
					"shape": [
						1,
						1,
						512,
						256
					],
					"dtype": "float32",
					"quantization": {
						"min": -0.2980502303908853,
						"scale": 0.0024231726048039456,
						"dtype": "uint8"
					}
				},
				{
					"name": "400/gamma",
					"shape": [
						256
					],
					"dtype": "float32",
					"quantization": {
						"min": 0.11538693308830261,
						"scale": 0.0010517682514938655,
						"dtype": "uint8"
					}
				},
				{
					"name": "400/beta",
					"shape": [
						256
					],
					"dtype": "float32",
					"quantization": {
						"min": -0.3680710822343826,
						"scale": 0.0017611056566238404,
						"dtype": "uint8"
					}
				},
				{
					"name": "400/moving_mean",
					"shape": [
						256
					],
					"dtype": "float32",
					"quantization": {
						"min": -0.3543842720050438,
						"scale": 0.0019909228764328304,
						"dtype": "uint8"
					}
				},
				{
					"name": "400/moving_variance",
					"shape": [
						256
					],
					"dtype": "float32",
					"quantization": {
						"min": 0.00833896268159151,
						"scale": 0.0003054421431585854,
						"dtype": "uint8"
					}
				},
				{
					"name": "402/kernel",
					"shape": [
						3,
						3,
						256,
						256
					],
					"dtype": "float32",
					"quantization": {
						"min": -0.20899371539845188,
						"scale": 0.0021770178687338737,
						"dtype": "uint8"
					}
				},
				{
					"name": "403/gamma",
					"shape": [
						256
					],
					"dtype": "float32",
					"quantization": {
						"min": 0.10774724930524826,
						"scale": 0.0007276312101121042,
						"dtype": "uint8"
					}
				},
				{
					"name": "403/beta",
					"shape": [
						256
					],
					"dtype": "float32",
					"quantization": {
						"min": -0.13942828984821543,
						"scale": 0.0017213369117063634,
						"dtype": "uint8"
					}
				},
				{
					"name": "403/moving_mean",
					"shape": [
						256
					],
					"dtype": "float32",
					"quantization": {
						"min": -0.18256557110477895,
						"scale": 0.0011269479697825862,
						"dtype": "uint8"
					}
				},
				{
					"name": "403/moving_variance",
					"shape": [
						256
					],
					"dtype": "float32",
					"quantization": {
						"min": 0.006757511757314205,
						"scale": 0.00018850062772923825,
						"dtype": "uint8"
					}
				},
				{
					"name": "405/kernel",
					"shape": [
						1,
						1,
						256,
						1024
					],
					"dtype": "float32",
					"quantization": {
						"min": -0.2697131125365987,
						"scale": 0.002386841703863705,
						"dtype": "uint8"
					}
				},
				{
					"name": "406/gamma",
					"shape": [
						1024
					],
					"dtype": "float32",
					"quantization": {
						"min": -0.09942925429227305,
						"scale": 0.0015296808352657392,
						"dtype": "uint8"
					}
				},
				{
					"name": "406/beta",
					"shape": [
						1024
					],
					"dtype": "float32",
					"quantization": {
						"min": -0.11017618459813736,
						"scale": 0.0009181348716511446,
						"dtype": "uint8"
					}
				},
				{
					"name": "406/moving_mean",
					"shape": [
						1024
					],
					"dtype": "float32",
					"quantization": {
						"min": -0.18667984663271436,
						"scale": 0.0016667843449349497,
						"dtype": "uint8"
					}
				},
				{
					"name": "406/moving_variance",
					"shape": [
						1024
					],
					"dtype": "float32",
					"quantization": {
						"min": 6.554262269511902e-24,
						"scale": 0.00004084101129396289,
						"dtype": "uint8"
					}
				},
				{
					"name": "407/kernel",
					"shape": [
						1,
						1,
						512,
						1024
					],
					"dtype": "float32",
					"quantization": {
						"min": -0.2805541541062149,
						"scale": 0.002299624213985368,
						"dtype": "uint8"
					}
				},
				{
					"name": "408/gamma",
					"shape": [
						1024
					],
					"dtype": "float32",
					"quantization": {
						"min": 0,
						"scale": 0.0012429433685200838,
						"dtype": "uint8"
					}
				},
				{
					"name": "408/beta",
					"shape": [
						1024
					],
					"dtype": "float32",
					"quantization": {
						"min": -0.11017617407967062,
						"scale": 0.0009181347839972552,
						"dtype": "uint8"
					}
				},
				{
					"name": "408/moving_mean",
					"shape": [
						1024
					],
					"dtype": "float32",
					"quantization": {
						"min": -0.23096446628664052,
						"scale": 0.001434561902401494,
						"dtype": "uint8"
					}
				},
				{
					"name": "408/moving_variance",
					"shape": [
						1024
					],
					"dtype": "float32",
					"quantization": {
						"min": 2.5854924057227714e-24,
						"scale": 0.0000880549424419216,
						"dtype": "uint8"
					}
				},
				{
					"name": "411/kernel",
					"shape": [
						1,
						1,
						1024,
						256
					],
					"dtype": "float32",
					"quantization": {
						"min": -0.22595595565496707,
						"scale": 0.002017463889776492,
						"dtype": "uint8"
					}
				},
				{
					"name": "412/gamma",
					"shape": [
						256
					],
					"dtype": "float32",
					"quantization": {
						"min": 0.05709762126207352,
						"scale": 0.0007235301768078523,
						"dtype": "uint8"
					}
				},
				{
					"name": "412/beta",
					"shape": [
						256
					],
					"dtype": "float32",
					"quantization": {
						"min": -0.17830744280534633,
						"scale": 0.0016509948407902437,
						"dtype": "uint8"
					}
				},
				{
					"name": "412/moving_mean",
					"shape": [
						256
					],
					"dtype": "float32",
					"quantization": {
						"min": -0.6608101182124194,
						"scale": 0.0031467148486305687,
						"dtype": "uint8"
					}
				},
				{
					"name": "412/moving_variance",
					"shape": [
						256
					],
					"dtype": "float32",
					"quantization": {
						"min": 0.005777281243354082,
						"scale": 0.00010924157960449948,
						"dtype": "uint8"
					}
				},
				{
					"name": "414/kernel",
					"shape": [
						3,
						3,
						256,
						256
					],
					"dtype": "float32",
					"quantization": {
						"min": -0.3260871055079441,
						"scale": 0.0023291936107710295,
						"dtype": "uint8"
					}
				},
				{
					"name": "415/gamma",
					"shape": [
						256
					],
					"dtype": "float32",
					"quantization": {
						"min": 0.07525992393493652,
						"scale": 0.0006335215825660556,
						"dtype": "uint8"
					}
				},
				{
					"name": "415/beta",
					"shape": [
						256
					],
					"dtype": "float32",
					"quantization": {
						"min": -0.23564804774873396,
						"scale": 0.0017200587426914888,
						"dtype": "uint8"
					}
				},
				{
					"name": "415/moving_mean",
					"shape": [
						256
					],
					"dtype": "float32",
					"quantization": {
						"min": -0.7426167824689079,
						"scale": 0.004760363990185307,
						"dtype": "uint8"
					}
				},
				{
					"name": "415/moving_variance",
					"shape": [
						256
					],
					"dtype": "float32",
					"quantization": {
						"min": 0.00370694138109684,
						"scale": 0.00008642515715430765,
						"dtype": "uint8"
					}
				},
				{
					"name": "417/kernel",
					"shape": [
						1,
						1,
						256,
						1024
					],
					"dtype": "float32",
					"quantization": {
						"min": -0.2289647943833295,
						"scale": 0.0023850499414930157,
						"dtype": "uint8"
					}
				},
				{
					"name": "418/gamma",
					"shape": [
						1024
					],
					"dtype": "float32",
					"quantization": {
						"min": -0.07378332731770534,
						"scale": 0.0013175594163875955,
						"dtype": "uint8"
					}
				},
				{
					"name": "418/beta",
					"shape": [
						1024
					],
					"dtype": "float32",
					"quantization": {
						"min": -0.2228938799862768,
						"scale": 0.0015371991723191504,
						"dtype": "uint8"
					}
				},
				{
					"name": "418/moving_mean",
					"shape": [
						1024
					],
					"dtype": "float32",
					"quantization": {
						"min": -0.10680141396382276,
						"scale": 0.0006717070060617784,
						"dtype": "uint8"
					}
				},
				{
					"name": "418/moving_variance",
					"shape": [
						1024
					],
					"dtype": "float32",
					"quantization": {
						"min": 2.25477272640063e-22,
						"scale": 0.00001775896834099994,
						"dtype": "uint8"
					}
				},
				{
					"name": "421/kernel",
					"shape": [
						1,
						1,
						1024,
						256
					],
					"dtype": "float32",
					"quantization": {
						"min": -0.14577775141772104,
						"scale": 0.0013883595373116288,
						"dtype": "uint8"
					}
				},
				{
					"name": "422/gamma",
					"shape": [
						256
					],
					"dtype": "float32",
					"quantization": {
						"min": 0.08704628795385361,
						"scale": 0.0005032700358652601,
						"dtype": "uint8"
					}
				},
				{
					"name": "422/beta",
					"shape": [
						256
					],
					"dtype": "float32",
					"quantization": {
						"min": -0.21298634760520038,
						"scale": 0.001238292718634886,
						"dtype": "uint8"
					}
				},
				{
					"name": "422/moving_mean",
					"shape": [
						256
					],
					"dtype": "float32",
					"quantization": {
						"min": -0.21924754486364476,
						"scale": 0.0012746950282770044,
						"dtype": "uint8"
					}
				},
				{
					"name": "422/moving_variance",
					"shape": [
						256
					],
					"dtype": "float32",
					"quantization": {
						"min": 0.004279962740838528,
						"scale": 0.00012651052618143605,
						"dtype": "uint8"
					}
				},
				{
					"name": "424/kernel",
					"shape": [
						3,
						3,
						256,
						256
					],
					"dtype": "float32",
					"quantization": {
						"min": -0.2096026003360748,
						"scale": 0.0013699516361834955,
						"dtype": "uint8"
					}
				},
				{
					"name": "425/gamma",
					"shape": [
						256
					],
					"dtype": "float32",
					"quantization": {
						"min": 0.09345259517431259,
						"scale": 0.0005344774500996459,
						"dtype": "uint8"
					}
				},
				{
					"name": "425/beta",
					"shape": [
						256
					],
					"dtype": "float32",
					"quantization": {
						"min": -0.22247958656619576,
						"scale": 0.001577869408270892,
						"dtype": "uint8"
					}
				},
				{
					"name": "425/moving_mean",
					"shape": [
						256
					],
					"dtype": "float32",
					"quantization": {
						"min": -0.21266880409390318,
						"scale": 0.0016614750319836186,
						"dtype": "uint8"
					}
				},
				{
					"name": "425/moving_variance",
					"shape": [
						256
					],
					"dtype": "float32",
					"quantization": {
						"min": 0.002425384009256959,
						"scale": 0.00012092162197565332,
						"dtype": "uint8"
					}
				},
				{
					"name": "427/kernel",
					"shape": [
						1,
						1,
						256,
						1024
					],
					"dtype": "float32",
					"quantization": {
						"min": -0.21733061846564797,
						"scale": 0.0016978954567628747,
						"dtype": "uint8"
					}
				},
				{
					"name": "428/gamma",
					"shape": [
						1024
					],
					"dtype": "float32",
					"quantization": {
						"min": -0.0672029357914831,
						"scale": 0.001562858971894956,
						"dtype": "uint8"
					}
				},
				{
					"name": "428/beta",
					"shape": [
						1024
					],
					"dtype": "float32",
					"quantization": {
						"min": -0.19937964373943853,
						"scale": 0.0013471597549962063,
						"dtype": "uint8"
					}
				},
				{
					"name": "428/moving_mean",
					"shape": [
						1024
					],
					"dtype": "float32",
					"quantization": {
						"min": -0.07636907755159865,
						"scale": 0.0004773067346974915,
						"dtype": "uint8"
					}
				},
				{
					"name": "428/moving_variance",
					"shape": [
						1024
					],
					"dtype": "float32",
					"quantization": {
						"min": 5.2810239531261335e-21,
						"scale": 0.000012326122754636932,
						"dtype": "uint8"
					}
				},
				{
					"name": "431/kernel",
					"shape": [
						1,
						1,
						1024,
						256
					],
					"dtype": "float32",
					"quantization": {
						"min": -0.19812905905293482,
						"scale": 0.002226169202841964,
						"dtype": "uint8"
					}
				},
				{
					"name": "432/gamma",
					"shape": [
						256
					],
					"dtype": "float32",
					"quantization": {
						"min": 0.0865962877869606,
						"scale": 0.0006334358862802094,
						"dtype": "uint8"
					}
				},
				{
					"name": "432/beta",
					"shape": [
						256
					],
					"dtype": "float32",
					"quantization": {
						"min": -0.21040411369473327,
						"scale": 0.0014817191105262906,
						"dtype": "uint8"
					}
				},
				{
					"name": "432/moving_mean",
					"shape": [
						256
					],
					"dtype": "float32",
					"quantization": {
						"min": -0.21656445177162395,
						"scale": 0.0012235279761108697,
						"dtype": "uint8"
					}
				},
				{
					"name": "432/moving_variance",
					"shape": [
						256
					],
					"dtype": "float32",
					"quantization": {
						"min": 0.006056657992303371,
						"scale": 0.00017399681622491163,
						"dtype": "uint8"
					}
				},
				{
					"name": "434/kernel",
					"shape": [
						3,
						3,
						256,
						256
					],
					"dtype": "float32",
					"quantization": {
						"min": -0.23177157313215965,
						"scale": 0.0017828582548627665,
						"dtype": "uint8"
					}
				},
				{
					"name": "435/gamma",
					"shape": [
						256
					],
					"dtype": "float32",
					"quantization": {
						"min": 0.08233922719955444,
						"scale": 0.0005373883481119194,
						"dtype": "uint8"
					}
				},
				{
					"name": "435/beta",
					"shape": [
						256
					],
					"dtype": "float32",
					"quantization": {
						"min": -0.24561577398403017,
						"scale": 0.0017670199567196415,
						"dtype": "uint8"
					}
				},
				{
					"name": "435/moving_mean",
					"shape": [
						256
					],
					"dtype": "float32",
					"quantization": {
						"min": -0.26551230251789093,
						"scale": 0.0018567293882369995,
						"dtype": "uint8"
					}
				},
				{
					"name": "435/moving_variance",
					"shape": [
						256
					],
					"dtype": "float32",
					"quantization": {
						"min": 0.0030332952737808228,
						"scale": 0.00012090929290827583,
						"dtype": "uint8"
					}
				},
				{
					"name": "437/kernel",
					"shape": [
						1,
						1,
						256,
						1024
					],
					"dtype": "float32",
					"quantization": {
						"min": -0.2826146827024572,
						"scale": 0.0021908114938174977,
						"dtype": "uint8"
					}
				},
				{
					"name": "438/gamma",
					"shape": [
						1024
					],
					"dtype": "float32",
					"quantization": {
						"min": -0.04452668108484325,
						"scale": 0.0012721908881383785,
						"dtype": "uint8"
					}
				},
				{
					"name": "438/beta",
					"shape": [
						1024
					],
					"dtype": "float32",
					"quantization": {
						"min": -0.1934483612284941,
						"scale": 0.0014880643171422622,
						"dtype": "uint8"
					}
				},
				{
					"name": "438/moving_mean",
					"shape": [
						1024
					],
					"dtype": "float32",
					"quantization": {
						"min": -0.06300372598217982,
						"scale": 0.0004405854963788799,
						"dtype": "uint8"
					}
				},
				{
					"name": "438/moving_variance",
					"shape": [
						1024
					],
					"dtype": "float32",
					"quantization": {
						"min": 7.464386368120218e-14,
						"scale": 0.000018731532070273905,
						"dtype": "uint8"
					}
				},
				{
					"name": "441/kernel",
					"shape": [
						1,
						1,
						1024,
						256
					],
					"dtype": "float32",
					"quantization": {
						"min": -0.21237852777920516,
						"scale": 0.002333829975595661,
						"dtype": "uint8"
					}
				},
				{
					"name": "442/gamma",
					"shape": [
						256
					],
					"dtype": "float32",
					"quantization": {
						"min": 0.08739408105611801,
						"scale": 0.0005888852710817374,
						"dtype": "uint8"
					}
				},
				{
					"name": "442/beta",
					"shape": [
						256
					],
					"dtype": "float32",
					"quantization": {
						"min": -0.2583409509238075,
						"scale": 0.0015562707886976354,
						"dtype": "uint8"
					}
				},
				{
					"name": "442/moving_mean",
					"shape": [
						256
					],
					"dtype": "float32",
					"quantization": {
						"min": -0.24284867337521382,
						"scale": 0.0013270419310120974,
						"dtype": "uint8"
					}
				},
				{
					"name": "442/moving_variance",
					"shape": [
						256
					],
					"dtype": "float32",
					"quantization": {
						"min": 0.00491012167185545,
						"scale": 0.00008277783864269069,
						"dtype": "uint8"
					}
				},
				{
					"name": "444/kernel",
					"shape": [
						3,
						3,
						256,
						256
					],
					"dtype": "float32",
					"quantization": {
						"min": -0.15246858187750273,
						"scale": 0.0012921066260805317,
						"dtype": "uint8"
					}
				},
				{
					"name": "445/gamma",
					"shape": [
						256
					],
					"dtype": "float32",
					"quantization": {
						"min": 0.06879756599664688,
						"scale": 0.0005892890633321276,
						"dtype": "uint8"
					}
				},
				{
					"name": "445/beta",
					"shape": [
						256
					],
					"dtype": "float32",
					"quantization": {
						"min": -0.2946999986966451,
						"scale": 0.0024355371793111165,
						"dtype": "uint8"
					}
				},
				{
					"name": "445/moving_mean",
					"shape": [
						256
					],
					"dtype": "float32",
					"quantization": {
						"min": -0.21485309998194377,
						"scale": 0.0015130499998728434,
						"dtype": "uint8"
					}
				},
				{
					"name": "445/moving_variance",
					"shape": [
						256
					],
					"dtype": "float32",
					"quantization": {
						"min": 0.0030783875845372677,
						"scale": 0.00014171443477857347,
						"dtype": "uint8"
					}
				},
				{
					"name": "447/kernel",
					"shape": [
						1,
						1,
						256,
						1024
					],
					"dtype": "float32",
					"quantization": {
						"min": -0.3859255355947158,
						"scale": 0.002923678299959968,
						"dtype": "uint8"
					}
				},
				{
					"name": "448/gamma",
					"shape": [
						1024
					],
					"dtype": "float32",
					"quantization": {
						"min": -0.06455601558965796,
						"scale": 0.001195481770178851,
						"dtype": "uint8"
					}
				},
				{
					"name": "448/beta",
					"shape": [
						1024
					],
					"dtype": "float32",
					"quantization": {
						"min": -0.24374897076803095,
						"scale": 0.001805547931615044,
						"dtype": "uint8"
					}
				},
				{
					"name": "448/moving_mean",
					"shape": [
						1024
					],
					"dtype": "float32",
					"quantization": {
						"min": -0.0704564978094662,
						"scale": 0.0008098448024076573,
						"dtype": "uint8"
					}
				},
				{
					"name": "448/moving_variance",
					"shape": [
						1024
					],
					"dtype": "float32",
					"quantization": {
						"min": 1.5031365041551226e-10,
						"scale": 0.000020421195331894983,
						"dtype": "uint8"
					}
				},
				{
					"name": "451/kernel",
					"shape": [
						1,
						1,
						1024,
						256
					],
					"dtype": "float32",
					"quantization": {
						"min": -0.21532692874179166,
						"scale": 0.002197213558589711,
						"dtype": "uint8"
					}
				},
				{
					"name": "452/gamma",
					"shape": [
						256
					],
					"dtype": "float32",
					"quantization": {
						"min": 0.08709509670734406,
						"scale": 0.0005708042313070858,
						"dtype": "uint8"
					}
				},
				{
					"name": "452/beta",
					"shape": [
						256
					],
					"dtype": "float32",
					"quantization": {
						"min": -0.30896336611579445,
						"scale": 0.002145578931359684,
						"dtype": "uint8"
					}
				},
				{
					"name": "452/moving_mean",
					"shape": [
						256
					],
					"dtype": "float32",
					"quantization": {
						"min": -0.18532456369961012,
						"scale": 0.0014039739674212887,
						"dtype": "uint8"
					}
				},
				{
					"name": "452/moving_variance",
					"shape": [
						256
					],
					"dtype": "float32",
					"quantization": {
						"min": 0.004488492850214243,
						"scale": 0.00017710309658272594,
						"dtype": "uint8"
					}
				},
				{
					"name": "454/kernel",
					"shape": [
						3,
						3,
						256,
						256
					],
					"dtype": "float32",
					"quantization": {
						"min": -0.2948716228499132,
						"scale": 0.0018545385084900202,
						"dtype": "uint8"
					}
				},
				{
					"name": "455/gamma",
					"shape": [
						256
					],
					"dtype": "float32",
					"quantization": {
						"min": 0.098101906478405,
						"scale": 0.0007959313544572569,
						"dtype": "uint8"
					}
				},
				{
					"name": "455/beta",
					"shape": [
						256
					],
					"dtype": "float32",
					"quantization": {
						"min": -0.24773161832024068,
						"scale": 0.001862643746768727,
						"dtype": "uint8"
					}
				},
				{
					"name": "455/moving_mean",
					"shape": [
						256
					],
					"dtype": "float32",
					"quantization": {
						"min": -0.21078023875460905,
						"scale": 0.001988492818439708,
						"dtype": "uint8"
					}
				},
				{
					"name": "455/moving_variance",
					"shape": [
						256
					],
					"dtype": "float32",
					"quantization": {
						"min": 0.0033820520620793104,
						"scale": 0.00007040607742965221,
						"dtype": "uint8"
					}
				},
				{
					"name": "457/kernel",
					"shape": [
						1,
						1,
						256,
						1024
					],
					"dtype": "float32",
					"quantization": {
						"min": -0.326300754850986,
						"scale": 0.002347487444971122,
						"dtype": "uint8"
					}
				},
				{
					"name": "458/gamma",
					"shape": [
						1024
					],
					"dtype": "float32",
					"quantization": {
						"min": -0.06796425712459228,
						"scale": 0.0012357137659016778,
						"dtype": "uint8"
					}
				},
				{
					"name": "458/beta",
					"shape": [
						1024
					],
					"dtype": "float32",
					"quantization": {
						"min": -0.3147649213379505,
						"scale": 0.002070821850907569,
						"dtype": "uint8"
					}
				},
				{
					"name": "458/moving_mean",
					"shape": [
						1024
					],
					"dtype": "float32",
					"quantization": {
						"min": -0.10386807789989547,
						"scale": 0.0007314653373232075,
						"dtype": "uint8"
					}
				},
				{
					"name": "458/moving_variance",
					"shape": [
						1024
					],
					"dtype": "float32",
					"quantization": {
						"min": 0.00006390540511347353,
						"scale": 0.00003423858833426208,
						"dtype": "uint8"
					}
				},
				{
					"name": "461/kernel",
					"shape": [
						1,
						1,
						1024,
						512
					],
					"dtype": "float32",
					"quantization": {
						"min": -0.45695823115461015,
						"scale": 0.0032874692888820874,
						"dtype": "uint8"
					}
				},
				{
					"name": "462/gamma",
					"shape": [
						512
					],
					"dtype": "float32",
					"quantization": {
						"min": 0.10488729923963547,
						"scale": 0.0007291667893821118,
						"dtype": "uint8"
					}
				},
				{
					"name": "462/beta",
					"shape": [
						512
					],
					"dtype": "float32",
					"quantization": {
						"min": -0.36650766040764604,
						"scale": 0.002207877472335217,
						"dtype": "uint8"
					}
				},
				{
					"name": "462/moving_mean",
					"shape": [
						512
					],
					"dtype": "float32",
					"quantization": {
						"min": -0.25812545033062206,
						"scale": 0.0018704742777581307,
						"dtype": "uint8"
					}
				},
				{
					"name": "462/moving_variance",
					"shape": [
						512
					],
					"dtype": "float32",
					"quantization": {
						"min": 0.004988817498087883,
						"scale": 0.0001138997793781991,
						"dtype": "uint8"
					}
				},
				{
					"name": "464/kernel",
					"shape": [
						3,
						3,
						512,
						512
					],
					"dtype": "float32",
					"quantization": {
						"min": -0.23606051650701781,
						"scale": 0.002146004695518344,
						"dtype": "uint8"
					}
				},
				{
					"name": "465/gamma",
					"shape": [
						512
					],
					"dtype": "float32",
					"quantization": {
						"min": 0.12011314928531647,
						"scale": 0.0005715570613449695,
						"dtype": "uint8"
					}
				},
				{
					"name": "465/beta",
					"shape": [
						512
					],
					"dtype": "float32",
					"quantization": {
						"min": -0.22758266358983284,
						"scale": 0.002253293698909236,
						"dtype": "uint8"
					}
				},
				{
					"name": "465/moving_mean",
					"shape": [
						512
					],
					"dtype": "float32",
					"quantization": {
						"min": -0.1394870827595393,
						"scale": 0.0016410245030534034,
						"dtype": "uint8"
					}
				},
				{
					"name": "465/moving_variance",
					"shape": [
						512
					],
					"dtype": "float32",
					"quantization": {
						"min": 0.004600966349244118,
						"scale": 0.00021555678663300534,
						"dtype": "uint8"
					}
				},
				{
					"name": "467/kernel",
					"shape": [
						1,
						1,
						512,
						2048
					],
					"dtype": "float32",
					"quantization": {
						"min": -0.21923437141904645,
						"scale": 0.0023322805470111325,
						"dtype": "uint8"
					}
				},
				{
					"name": "468/gamma",
					"shape": [
						2048
					],
					"dtype": "float32",
					"quantization": {
						"min": 0.009419864043593407,
						"scale": 0.002059364764421594,
						"dtype": "uint8"
					}
				},
				{
					"name": "468/beta",
					"shape": [
						2048
					],
					"dtype": "float32",
					"quantization": {
						"min": -0.13311379283082253,
						"scale": 0.0011475326968174355,
						"dtype": "uint8"
					}
				},
				{
					"name": "468/moving_mean",
					"shape": [
						2048
					],
					"dtype": "float32",
					"quantization": {
						"min": -0.13895093272714054,
						"scale": 0.0012518102047490139,
						"dtype": "uint8"
					}
				},
				{
					"name": "468/moving_variance",
					"shape": [
						2048
					],
					"dtype": "float32",
					"quantization": {
						"min": 0.000009333447451354004,
						"scale": 0.00004476309657940303,
						"dtype": "uint8"
					}
				},
				{
					"name": "469/kernel",
					"shape": [
						1,
						1,
						1024,
						2048
					],
					"dtype": "float32",
					"quantization": {
						"min": -0.2225816530339858,
						"scale": 0.0024731294781553978,
						"dtype": "uint8"
					}
				},
				{
					"name": "470/gamma",
					"shape": [
						2048
					],
					"dtype": "float32",
					"quantization": {
						"min": 0.05139368399977684,
						"scale": 0.0024679415512318705,
						"dtype": "uint8"
					}
				},
				{
					"name": "470/beta",
					"shape": [
						2048
					],
					"dtype": "float32",
					"quantization": {
						"min": -0.13311380638795742,
						"scale": 0.001147532813689288,
						"dtype": "uint8"
					}
				},
				{
					"name": "470/moving_mean",
					"shape": [
						2048
					],
					"dtype": "float32",
					"quantization": {
						"min": -0.12027195706671359,
						"scale": 0.0009043004290730345,
						"dtype": "uint8"
					}
				},
				{
					"name": "470/moving_variance",
					"shape": [
						2048
					],
					"dtype": "float32",
					"quantization": {
						"min": 0.00013263685104902834,
						"scale": 0.00003678083297677849,
						"dtype": "uint8"
					}
				},
				{
					"name": "473/kernel",
					"shape": [
						1,
						1,
						2048,
						512
					],
					"dtype": "float32",
					"quantization": {
						"min": -0.26748653439914477,
						"scale": 0.002907462330425487,
						"dtype": "uint8"
					}
				},
				{
					"name": "474/gamma",
					"shape": [
						512
					],
					"dtype": "float32",
					"quantization": {
						"min": 0.1211727187037468,
						"scale": 0.0005948220105732189,
						"dtype": "uint8"
					}
				},
				{
					"name": "474/beta",
					"shape": [
						512
					],
					"dtype": "float32",
					"quantization": {
						"min": -0.24423604479023053,
						"scale": 0.001908094099923676,
						"dtype": "uint8"
					}
				},
				{
					"name": "474/moving_mean",
					"shape": [
						512
					],
					"dtype": "float32",
					"quantization": {
						"min": -0.5779485106468201,
						"scale": 0.006799394242903765,
						"dtype": "uint8"
					}
				},
				{
					"name": "474/moving_variance",
					"shape": [
						512
					],
					"dtype": "float32",
					"quantization": {
						"min": 0.06507237255573273,
						"scale": 0.0016092393328161802,
						"dtype": "uint8"
					}
				},
				{
					"name": "476/kernel",
					"shape": [
						3,
						3,
						512,
						512
					],
					"dtype": "float32",
					"quantization": {
						"min": -0.3093196015731961,
						"scale": 0.0018976662673202216,
						"dtype": "uint8"
					}
				},
				{
					"name": "477/gamma",
					"shape": [
						512
					],
					"dtype": "float32",
					"quantization": {
						"min": 0.15098699927330017,
						"scale": 0.0005359321248297597,
						"dtype": "uint8"
					}
				},
				{
					"name": "477/beta",
					"shape": [
						512
					],
					"dtype": "float32",
					"quantization": {
						"min": -0.35654642792309027,
						"scale": 0.002528698070376527,
						"dtype": "uint8"
					}
				},
				{
					"name": "477/moving_mean",
					"shape": [
						512
					],
					"dtype": "float32",
					"quantization": {
						"min": -0.313449325281031,
						"scale": 0.0027495554849213243,
						"dtype": "uint8"
					}
				},
				{
					"name": "477/moving_variance",
					"shape": [
						512
					],
					"dtype": "float32",
					"quantization": {
						"min": 0.006539684254676104,
						"scale": 0.00016908493513862293,
						"dtype": "uint8"
					}
				},
				{
					"name": "479/kernel",
					"shape": [
						1,
						1,
						512,
						2048
					],
					"dtype": "float32",
					"quantization": {
						"min": -0.1819253080031451,
						"scale": 0.002091095494289024,
						"dtype": "uint8"
					}
				},
				{
					"name": "480/gamma",
					"shape": [
						2048
					],
					"dtype": "float32",
					"quantization": {
						"min": 0.05290501192212105,
						"scale": 0.0032036863559601354,
						"dtype": "uint8"
					}
				},
				{
					"name": "480/beta",
					"shape": [
						2048
					],
					"dtype": "float32",
					"quantization": {
						"min": -0.23263651512417138,
						"scale": 0.0014817612428291171,
						"dtype": "uint8"
					}
				},
				{
					"name": "480/moving_mean",
					"shape": [
						2048
					],
					"dtype": "float32",
					"quantization": {
						"min": -0.14826886092915254,
						"scale": 0.0012355738410762711,
						"dtype": "uint8"
					}
				},
				{
					"name": "480/moving_variance",
					"shape": [
						2048
					],
					"dtype": "float32",
					"quantization": {
						"min": 0.00002989746462844778,
						"scale": 0.000054848905732368996,
						"dtype": "uint8"
					}
				},
				{
					"name": "483/kernel",
					"shape": [
						1,
						1,
						2048,
						512
					],
					"dtype": "float32",
					"quantization": {
						"min": -0.3344730503418867,
						"scale": 0.002654548018586402,
						"dtype": "uint8"
					}
				},
				{
					"name": "484/gamma",
					"shape": [
						512
					],
					"dtype": "float32",
					"quantization": {
						"min": 0.12609682977199554,
						"scale": 0.0011836405478271783,
						"dtype": "uint8"
					}
				},
				{
					"name": "484/beta",
					"shape": [
						512
					],
					"dtype": "float32",
					"quantization": {
						"min": -0.3590399082969217,
						"scale": 0.002189267733517815,
						"dtype": "uint8"
					}
				},
				{
					"name": "484/moving_mean",
					"shape": [
						512
					],
					"dtype": "float32",
					"quantization": {
						"min": -0.8001175235299504,
						"scale": 0.01081239896662095,
						"dtype": "uint8"
					}
				},
				{
					"name": "484/moving_variance",
					"shape": [
						512
					],
					"dtype": "float32",
					"quantization": {
						"min": 0.1889166682958603,
						"scale": 0.00675410622475194,
						"dtype": "uint8"
					}
				},
				{
					"name": "486/kernel",
					"shape": [
						3,
						3,
						512,
						512
					],
					"dtype": "float32",
					"quantization": {
						"min": -0.11306950414881987,
						"scale": 0.0008438022697673125,
						"dtype": "uint8"
					}
				},
				{
					"name": "487/gamma",
					"shape": [
						512
					],
					"dtype": "float32",
					"quantization": {
						"min": 0.12219762057065964,
						"scale": 0.0008281094478625877,
						"dtype": "uint8"
					}
				},
				{
					"name": "487/beta",
					"shape": [
						512
					],
					"dtype": "float32",
					"quantization": {
						"min": -0.33957153021120556,
						"scale": 0.00303188866260005,
						"dtype": "uint8"
					}
				},
				{
					"name": "487/moving_mean",
					"shape": [
						512
					],
					"dtype": "float32",
					"quantization": {
						"min": -0.23257777094841003,
						"scale": 0.0007380535205205282,
						"dtype": "uint8"
					}
				},
				{
					"name": "487/moving_variance",
					"shape": [
						512
					],
					"dtype": "float32",
					"quantization": {
						"min": 0.016971182078123093,
						"scale": 0.00022890075456862357,
						"dtype": "uint8"
					}
				},
				{
					"name": "489/kernel",
					"shape": [
						1,
						1,
						512,
						2048
					],
					"dtype": "float32",
					"quantization": {
						"min": -0.14446909012747747,
						"scale": 0.0023683457397947125,
						"dtype": "uint8"
					}
				},
				{
					"name": "490/gamma",
					"shape": [
						2048
					],
					"dtype": "float32",
					"quantization": {
						"min": -1.372637506092296,
						"scale": 0.012366103658489152,
						"dtype": "uint8"
					}
				},
				{
					"name": "490/beta",
					"shape": [
						2048
					],
					"dtype": "float32",
					"quantization": {
						"min": -0.13698817772023816,
						"scale": 0.0017562586887210022,
						"dtype": "uint8"
					}
				},
				{
					"name": "490/moving_mean",
					"shape": [
						2048
					],
					"dtype": "float32",
					"quantization": {
						"min": -0.041581530343083775,
						"scale": 0.00039601457469603597,
						"dtype": "uint8"
					}
				},
				{
					"name": "490/moving_variance",
					"shape": [
						2048
					],
					"dtype": "float32",
					"quantization": {
						"min": 0.000027781979952123947,
						"scale": 0.000017736765706407216,
						"dtype": "uint8"
					}
				},
				{
					"name": "output_0/kernel",
					"shape": [
						2048,
						683
					],
					"dtype": "float32",
					"quantization": {
						"min": -0.18333251277605694,
						"scale": 0.002156853091483023,
						"dtype": "uint8"
					}
				},
				{
					"name": "output_0/bias",
					"shape": [
						683
					],
					"dtype": "float32",
					"quantization": {
						"min": -0.040630203427052966,
						"scale": 0.00041886807656755636,
						"dtype": "uint8"
					}
				}
			]
		}
	]
}